name: "rotation_rnn"
layers {
  bottom: "images"
  top: "ep_conv_5x5_2_0"
  name: "conv_5x5_2_0"
  type: CONVOLUTION
  blobs_lr: 1
  blobs_lr: 2
  weight_decay: 1
  weight_decay: 0
  convolution_param {
    num_output: 64
    pad: 2
    kernel_size: 5
    stride: 2
    weight_filler {
      type: "xavier"
    }
    bias_filler {
      type: "constant"
      value: 0.1
    }
  }
  param: "conv1_w"
  param: "conv1_b"
}
layers {
  bottom: "ep_conv_5x5_2_0"
  top: "ep_conv_5x5_2_0"
  name: "relu_1"
  type: RELU
}
layers {
  bottom: "ep_conv_5x5_2_0"
  top: "ep_conv_5x5_2_1"
  name: "conv_5x5_2_2"
  type: CONVOLUTION
  blobs_lr: 1
  blobs_lr: 2
  weight_decay: 1
  weight_decay: 0
  convolution_param {
    num_output: 128
    pad: 2
    kernel_size: 5
    stride: 2
    weight_filler {
      type: "xavier"
    }
    bias_filler {
      type: "constant"
      value: 0.1
    }
  }
  param: "conv2_w"
  param: "conv2_b"
}
layers {
  bottom: "ep_conv_5x5_2_1"
  top: "ep_conv_5x5_2_1"
  name: "relu_3"
  type: RELU
}
layers {
  bottom: "ep_conv_5x5_2_1"
  top: "ep_conv_5x5_2_2"
  name: "conv_5x5_2_4"
  type: CONVOLUTION
  blobs_lr: 1
  blobs_lr: 2
  weight_decay: 1
  weight_decay: 0
  convolution_param {
    num_output: 256
    pad: 2
    kernel_size: 5
    stride: 2
    weight_filler {
      type: "xavier"
    }
    bias_filler {
      type: "constant"
      value: 0.1
    }
  }
  param: "conv3_w"
  param: "conv3_b"
}
layers {
  bottom: "ep_conv_5x5_2_2"
  top: "ep_conv_5x5_2_2"
  name: "relu_5"
  type: RELU
}
layers {
  bottom: "ep_conv_5x5_2_2"
  top: "ep_inner_product_3"
  name: "inner_product_6"
  type: INNER_PRODUCT
  blobs_lr: 1
  blobs_lr: 2
  weight_decay: 1
  weight_decay: 0
  inner_product_param {
    num_output: 1024
    weight_filler {
      type: "xavier"
    }
    bias_filler {
      type: "constant"
      value: 0.1
    }
  }
  param: "fc1_w"
  param: "fc1_b"
}
layers {
  bottom: "ep_inner_product_3"
  top: "ep_inner_product_3"
  name: "relu_7"
  type: RELU
}
layers {
  bottom: "ep_inner_product_3"
  top: "ep_inner_product_4"
  name: "inner_product_8"
  type: INNER_PRODUCT
  blobs_lr: 1
  blobs_lr: 2
  weight_decay: 1
  weight_decay: 0
  inner_product_param {
    num_output: 1024
    weight_filler {
      type: "xavier"
    }
    bias_filler {
      type: "constant"
      value: 0.1
    }
  }
  param: "fc2_w"
  param: "fc2_b"
}
layers {
  bottom: "ep_inner_product_4"
  top: "ep_relu_5"
  name: "relu_9"
  type: RELU
}
layers {
  bottom: "ep_relu_5"
  top: "ep_split_6"
  top: "ep_split_8"
  name: "split_10"
  type: SPLIT
}
layers {
  bottom: "ep_split_6"
  top: "ep_inner_product_7"
  name: "inner_product_11"
  type: INNER_PRODUCT
  blobs_lr: 1
  blobs_lr: 2
  weight_decay: 1
  weight_decay: 0
  inner_product_param {
    num_output: 512
    weight_filler {
      type: "xavier"
    }
    bias_filler {
      type: "constant"
      value: 0.1
    }
  }
  param: "fc1_id_w"
  param: "fc1_id_b"
}
layers {
  bottom: "ep_inner_product_7"
  top: "ep_inner_product_7"
  name: "relu_12"
  type: RELU
}
layers {
  bottom: "ep_inner_product_7"
  top: "ep_split_12"
  top: "ep_split_37"
  top: "ep_split_62"
  top: "ep_split_87"
  top: "ep_split_112"
  top: "ep_split_137"
  top: "ep_split_162"
  top: "ep_split_187"
  top: "ep_split_212"
  top: "ep_split_237"
  top: "ep_split_262"
  top: "ep_split_287"
  top: "ep_split_312"
  top: "ep_split_337"
  top: "ep_split_362"
  top: "ep_split_387"
  top: "ep_split_412"
  top: "ep_split_437"
  top: "ep_split_462"
  top: "ep_split_487"
  top: "ep_split_512"
  top: "ep_split_537"
  top: "ep_split_562"
  top: "ep_split_587"
  top: "ep_split_612"
  top: "ep_split_637"
  top: "ep_split_662"
  top: "ep_split_687"
  top: "ep_split_712"
  top: "ep_split_737"
  top: "ep_split_762"
  name: "split_13"
  type: SPLIT
}
layers {
  bottom: "ep_split_8"
  top: "ep_inner_product_9"
  name: "inner_product"
  type: INNER_PRODUCT
  blobs_lr: 1
  blobs_lr: 2
  weight_decay: 1
  weight_decay: 0
  inner_product_param {
    num_output: 512
    weight_filler {
      type: "xavier"
    }
    bias_filler {
      type: "constant"
      value: 0.1
    }
  }
  param: "fc1_view_w"
  param: "fc1_view_b"
}
layers {
  bottom: "ep_inner_product_9"
  top: "ep_inner_product_9"
  name: "relu"
  type: RELU
}
layers {
  bottom: "ep_inner_product_9"
  bottom: "rotations0"
  top: "ep_tensor_product_10"
  name: "tensor_product_14"
  type: TENSOR_PRODUCT
  blobs_lr: 1
  blobs_lr: 2
  weight_decay: 1
  weight_decay: 0
  inner_product_param {
    num_output: 512
    weight_filler {
      type: "xavier"
    }
    bias_filler {
      type: "constant"
      value: 0.1
    }
  }
  param: "tensor_view_w"
  param: "tensor_view_b"
}
layers {
  bottom: "ep_tensor_product_10"
  top: "ep_relu_11"
  name: "relu_45"
  type: RELU
}
layers {
  bottom: "ep_relu_11"
  top: "ep_split_13"
  top: "ep_split_34"
  name: "split_76"
  type: SPLIT
}
layers {
  bottom: "ep_split_12"
  bottom: "ep_split_13"
  top: "ep_concat_14"
  name: "concat_107"
  type: CONCAT
  concat_param {
    concat_dim: 1
  }
}
layers {
  bottom: "ep_concat_14"
  top: "ep_inner_product_15"
  name: "inner_product_138"
  type: INNER_PRODUCT
  blobs_lr: 1
  blobs_lr: 2
  weight_decay: 1
  weight_decay: 0
  inner_product_param {
    num_output: 1024
    weight_filler {
      type: "xavier"
    }
    bias_filler {
      type: "constant"
      value: 0.1
    }
  }
  param: "dec_fc1_w"
  param: "dec_fc1_b"
}
layers {
  bottom: "ep_inner_product_15"
  top: "ep_inner_product_15"
  name: "relu_169"
  type: RELU
}
layers {
  bottom: "ep_inner_product_15"
  top: "ep_inner_product_16"
  name: "inner_product_200"
  type: INNER_PRODUCT
  blobs_lr: 1
  blobs_lr: 2
  weight_decay: 1
  weight_decay: 0
  inner_product_param {
    num_output: 1024
    weight_filler {
      type: "xavier"
    }
    bias_filler {
      type: "constant"
      value: 0.1
    }
  }
  param: "dec_fc2_w"
  param: "dec_fc2_b"
}
layers {
  bottom: "ep_inner_product_16"
  top: "ep_relu_17"
  name: "relu_231"
  type: RELU
}
layers {
  bottom: "ep_relu_17"
  top: "ep_split_18"
  top: "ep_split_26"
  name: "split_262"
  type: SPLIT
}
layers {
  bottom: "ep_split_18"
  top: "ep_inner_product_19"
  name: "inner_product_293"
  type: INNER_PRODUCT
  blobs_lr: 1
  blobs_lr: 2
  weight_decay: 1
  weight_decay: 0
  inner_product_param {
    num_output: 16384
    weight_filler {
      type: "xavier"
    }
    bias_filler {
      type: "constant"
      value: 0.1
    }
  }
  param: "dec_img_fc1_w"
  param: "dec_img_fc1_b"
}
layers {
  bottom: "ep_inner_product_19"
  top: "ep_inner_product_19"
  name: "relu_324"
  type: RELU
}
layers {
  bottom: "ep_inner_product_19"
  top: "ep_folding_20"
  name: "folding_355"
  type: FOLDING
  folding_param {
    channels_folded: 256
    height_folded: 8
    width_folded: 8
  }
}
layers {
  bottom: "ep_folding_20"
  top: "ep_upsample_21"
  name: "upsample_386"
  type: UPSAMPLING
  upsampling_param {
    kernel_size: 2
  }
}
layers {
  bottom: "ep_upsample_21"
  top: "ep_conv_5x5_1_22"
  name: "conv_5x5_1_417"
  type: CONVOLUTION
  blobs_lr: 1
  blobs_lr: 2
  weight_decay: 1
  weight_decay: 0
  convolution_param {
    num_output: 128
    pad: 2
    kernel_size: 5
    stride: 1
    weight_filler {
      type: "xavier"
    }
    bias_filler {
      type: "constant"
      value: 0.1
    }
  }
  param: "dec_img_conv1_w"
  param: "dec_img_conv1_b"
}
layers {
  bottom: "ep_conv_5x5_1_22"
  top: "ep_conv_5x5_1_22"
  name: "relu_448"
  type: RELU
}
layers {
  bottom: "ep_conv_5x5_1_22"
  top: "ep_upsample_23"
  name: "upsample_479"
  type: UPSAMPLING
  upsampling_param {
    kernel_size: 2
  }
}
layers {
  bottom: "ep_upsample_23"
  top: "ep_conv_5x5_1_24"
  name: "conv_5x5_1_510"
  type: CONVOLUTION
  blobs_lr: 1
  blobs_lr: 2
  weight_decay: 1
  weight_decay: 0
  convolution_param {
    num_output: 64
    pad: 2
    kernel_size: 5
    stride: 1
    weight_filler {
      type: "xavier"
    }
    bias_filler {
      type: "constant"
      value: 0.1
    }
  }
  param: "dec_img_conv2_w"
  param: "dec_img_conv2_b"
}
layers {
  bottom: "ep_conv_5x5_1_24"
  top: "ep_conv_5x5_1_24"
  name: "relu_541"
  type: RELU
}
layers {
  bottom: "ep_conv_5x5_1_24"
  top: "ep_upsample_25"
  name: "upsample_572"
  type: UPSAMPLING
  upsampling_param {
    kernel_size: 2
  }
}
layers {
  bottom: "ep_upsample_25"
  top: "ep_t0_conv_5x5_1_784"
  name: "t0_conv_5x5_1_603"
  type: CONVOLUTION
  blobs_lr: 1
  blobs_lr: 2
  weight_decay: 1
  weight_decay: 0
  convolution_param {
    num_output: 3
    pad: 2
    kernel_size: 5
    stride: 1
    weight_filler {
      type: "xavier"
    }
    bias_filler {
      type: "constant"
      value: 0.1
    }
  }
  param: "dec_img_conv3_w"
  param: "dec_img_conv3_b"
}
layers {
  bottom: "ep_split_26"
  top: "ep_inner_product_27"
  name: "inner_product_634"
  type: INNER_PRODUCT
  blobs_lr: 1
  blobs_lr: 2
  weight_decay: 1
  weight_decay: 0
  inner_product_param {
    num_output: 8192
    weight_filler {
      type: "xavier"
    }
    bias_filler {
      type: "constant"
      value: 0.1
    }
  }
  param: "dec_mask_fc1_w"
  param: "dec_mask_fc1_b"
}
layers {
  bottom: "ep_inner_product_27"
  top: "ep_inner_product_27"
  name: "relu_665"
  type: RELU
}
layers {
  bottom: "ep_inner_product_27"
  top: "ep_folding_28"
  name: "folding_696"
  type: FOLDING
  folding_param {
    channels_folded: 128
    height_folded: 8
    width_folded: 8
  }
}
layers {
  bottom: "ep_folding_28"
  top: "ep_upsample_29"
  name: "upsample_727"
  type: UPSAMPLING
  upsampling_param {
    kernel_size: 2
  }
}
layers {
  bottom: "ep_upsample_29"
  top: "ep_conv_5x5_1_30"
  name: "conv_5x5_1_758"
  type: CONVOLUTION
  blobs_lr: 1
  blobs_lr: 2
  weight_decay: 1
  weight_decay: 0
  convolution_param {
    num_output: 64
    pad: 2
    kernel_size: 5
    stride: 1
    weight_filler {
      type: "xavier"
    }
    bias_filler {
      type: "constant"
      value: 0.1
    }
  }
  param: "dec_mask_conv1_w"
  param: "dec_mask_conv1_b"
}
layers {
  bottom: "ep_conv_5x5_1_30"
  top: "ep_conv_5x5_1_30"
  name: "relu_789"
  type: RELU
}
layers {
  bottom: "ep_conv_5x5_1_30"
  top: "ep_upsample_31"
  name: "upsample_820"
  type: UPSAMPLING
  upsampling_param {
    kernel_size: 2
  }
}
layers {
  bottom: "ep_upsample_31"
  top: "ep_conv_5x5_1_32"
  name: "conv_5x5_1_851"
  type: CONVOLUTION
  blobs_lr: 1
  blobs_lr: 2
  weight_decay: 1
  weight_decay: 0
  convolution_param {
    num_output: 32
    pad: 2
    kernel_size: 5
    stride: 1
    weight_filler {
      type: "xavier"
    }
    bias_filler {
      type: "constant"
      value: 0.1
    }
  }
  param: "dec_mask_conv2_w"
  param: "dec_mask_conv2_b"
}
layers {
  bottom: "ep_conv_5x5_1_32"
  top: "ep_conv_5x5_1_32"
  name: "relu_882"
  type: RELU
}
layers {
  bottom: "ep_conv_5x5_1_32"
  top: "ep_upsample_33"
  name: "upsample_913"
  type: UPSAMPLING
  upsampling_param {
    kernel_size: 2
  }
}
layers {
  bottom: "ep_upsample_33"
  top: "ep_t0_conv_5x5_1_815"
  name: "t0_conv_5x5_1_944"
  type: CONVOLUTION
  blobs_lr: 1
  blobs_lr: 2
  weight_decay: 1
  weight_decay: 0
  convolution_param {
    num_output: 1
    pad: 2
    kernel_size: 5
    stride: 1
    weight_filler {
      type: "xavier"
    }
    bias_filler {
      type: "constant"
      value: 0.1
    }
  }
  param: "dec_mask_conv3_w"
  param: "dec_mask_conv3_b"
}
layers {
  bottom: "ep_split_34"
  bottom: "rotations1"
  top: "ep_tensor_product_35"
  name: "tensor_product_15"
  type: TENSOR_PRODUCT
  blobs_lr: 1
  blobs_lr: 2
  weight_decay: 1
  weight_decay: 0
  inner_product_param {
    num_output: 512
    weight_filler {
      type: "xavier"
    }
    bias_filler {
      type: "constant"
      value: 0.1
    }
  }
  param: "tensor_view_w"
  param: "tensor_view_b"
}
layers {
  bottom: "ep_tensor_product_35"
  top: "ep_relu_36"
  name: "relu_46"
  type: RELU
}
layers {
  bottom: "ep_relu_36"
  top: "ep_split_38"
  top: "ep_split_59"
  name: "split_77"
  type: SPLIT
}
layers {
  bottom: "ep_split_37"
  bottom: "ep_split_38"
  top: "ep_concat_39"
  name: "concat_108"
  type: CONCAT
  concat_param {
    concat_dim: 1
  }
}
layers {
  bottom: "ep_concat_39"
  top: "ep_inner_product_40"
  name: "inner_product_139"
  type: INNER_PRODUCT
  blobs_lr: 1
  blobs_lr: 2
  weight_decay: 1
  weight_decay: 0
  inner_product_param {
    num_output: 1024
    weight_filler {
      type: "xavier"
    }
    bias_filler {
      type: "constant"
      value: 0.1
    }
  }
  param: "dec_fc1_w"
  param: "dec_fc1_b"
}
layers {
  bottom: "ep_inner_product_40"
  top: "ep_inner_product_40"
  name: "relu_170"
  type: RELU
}
layers {
  bottom: "ep_inner_product_40"
  top: "ep_inner_product_41"
  name: "inner_product_201"
  type: INNER_PRODUCT
  blobs_lr: 1
  blobs_lr: 2
  weight_decay: 1
  weight_decay: 0
  inner_product_param {
    num_output: 1024
    weight_filler {
      type: "xavier"
    }
    bias_filler {
      type: "constant"
      value: 0.1
    }
  }
  param: "dec_fc2_w"
  param: "dec_fc2_b"
}
layers {
  bottom: "ep_inner_product_41"
  top: "ep_relu_42"
  name: "relu_232"
  type: RELU
}
layers {
  bottom: "ep_relu_42"
  top: "ep_split_43"
  top: "ep_split_51"
  name: "split_263"
  type: SPLIT
}
layers {
  bottom: "ep_split_43"
  top: "ep_inner_product_44"
  name: "inner_product_294"
  type: INNER_PRODUCT
  blobs_lr: 1
  blobs_lr: 2
  weight_decay: 1
  weight_decay: 0
  inner_product_param {
    num_output: 16384
    weight_filler {
      type: "xavier"
    }
    bias_filler {
      type: "constant"
      value: 0.1
    }
  }
  param: "dec_img_fc1_w"
  param: "dec_img_fc1_b"
}
layers {
  bottom: "ep_inner_product_44"
  top: "ep_inner_product_44"
  name: "relu_325"
  type: RELU
}
layers {
  bottom: "ep_inner_product_44"
  top: "ep_folding_45"
  name: "folding_356"
  type: FOLDING
  folding_param {
    channels_folded: 256
    height_folded: 8
    width_folded: 8
  }
}
layers {
  bottom: "ep_folding_45"
  top: "ep_upsample_46"
  name: "upsample_387"
  type: UPSAMPLING
  upsampling_param {
    kernel_size: 2
  }
}
layers {
  bottom: "ep_upsample_46"
  top: "ep_conv_5x5_1_47"
  name: "conv_5x5_1_418"
  type: CONVOLUTION
  blobs_lr: 1
  blobs_lr: 2
  weight_decay: 1
  weight_decay: 0
  convolution_param {
    num_output: 128
    pad: 2
    kernel_size: 5
    stride: 1
    weight_filler {
      type: "xavier"
    }
    bias_filler {
      type: "constant"
      value: 0.1
    }
  }
  param: "dec_img_conv1_w"
  param: "dec_img_conv1_b"
}
layers {
  bottom: "ep_conv_5x5_1_47"
  top: "ep_conv_5x5_1_47"
  name: "relu_449"
  type: RELU
}
layers {
  bottom: "ep_conv_5x5_1_47"
  top: "ep_upsample_48"
  name: "upsample_480"
  type: UPSAMPLING
  upsampling_param {
    kernel_size: 2
  }
}
layers {
  bottom: "ep_upsample_48"
  top: "ep_conv_5x5_1_49"
  name: "conv_5x5_1_511"
  type: CONVOLUTION
  blobs_lr: 1
  blobs_lr: 2
  weight_decay: 1
  weight_decay: 0
  convolution_param {
    num_output: 64
    pad: 2
    kernel_size: 5
    stride: 1
    weight_filler {
      type: "xavier"
    }
    bias_filler {
      type: "constant"
      value: 0.1
    }
  }
  param: "dec_img_conv2_w"
  param: "dec_img_conv2_b"
}
layers {
  bottom: "ep_conv_5x5_1_49"
  top: "ep_conv_5x5_1_49"
  name: "relu_542"
  type: RELU
}
layers {
  bottom: "ep_conv_5x5_1_49"
  top: "ep_upsample_50"
  name: "upsample_573"
  type: UPSAMPLING
  upsampling_param {
    kernel_size: 2
  }
}
layers {
  bottom: "ep_upsample_50"
  top: "ep_t1_conv_5x5_1_785"
  name: "t1_conv_5x5_1_604"
  type: CONVOLUTION
  blobs_lr: 1
  blobs_lr: 2
  weight_decay: 1
  weight_decay: 0
  convolution_param {
    num_output: 3
    pad: 2
    kernel_size: 5
    stride: 1
    weight_filler {
      type: "xavier"
    }
    bias_filler {
      type: "constant"
      value: 0.1
    }
  }
  param: "dec_img_conv3_w"
  param: "dec_img_conv3_b"
}
layers {
  bottom: "ep_split_51"
  top: "ep_inner_product_52"
  name: "inner_product_635"
  type: INNER_PRODUCT
  blobs_lr: 1
  blobs_lr: 2
  weight_decay: 1
  weight_decay: 0
  inner_product_param {
    num_output: 8192
    weight_filler {
      type: "xavier"
    }
    bias_filler {
      type: "constant"
      value: 0.1
    }
  }
  param: "dec_mask_fc1_w"
  param: "dec_mask_fc1_b"
}
layers {
  bottom: "ep_inner_product_52"
  top: "ep_inner_product_52"
  name: "relu_666"
  type: RELU
}
layers {
  bottom: "ep_inner_product_52"
  top: "ep_folding_53"
  name: "folding_697"
  type: FOLDING
  folding_param {
    channels_folded: 128
    height_folded: 8
    width_folded: 8
  }
}
layers {
  bottom: "ep_folding_53"
  top: "ep_upsample_54"
  name: "upsample_728"
  type: UPSAMPLING
  upsampling_param {
    kernel_size: 2
  }
}
layers {
  bottom: "ep_upsample_54"
  top: "ep_conv_5x5_1_55"
  name: "conv_5x5_1_759"
  type: CONVOLUTION
  blobs_lr: 1
  blobs_lr: 2
  weight_decay: 1
  weight_decay: 0
  convolution_param {
    num_output: 64
    pad: 2
    kernel_size: 5
    stride: 1
    weight_filler {
      type: "xavier"
    }
    bias_filler {
      type: "constant"
      value: 0.1
    }
  }
  param: "dec_mask_conv1_w"
  param: "dec_mask_conv1_b"
}
layers {
  bottom: "ep_conv_5x5_1_55"
  top: "ep_conv_5x5_1_55"
  name: "relu_790"
  type: RELU
}
layers {
  bottom: "ep_conv_5x5_1_55"
  top: "ep_upsample_56"
  name: "upsample_821"
  type: UPSAMPLING
  upsampling_param {
    kernel_size: 2
  }
}
layers {
  bottom: "ep_upsample_56"
  top: "ep_conv_5x5_1_57"
  name: "conv_5x5_1_852"
  type: CONVOLUTION
  blobs_lr: 1
  blobs_lr: 2
  weight_decay: 1
  weight_decay: 0
  convolution_param {
    num_output: 32
    pad: 2
    kernel_size: 5
    stride: 1
    weight_filler {
      type: "xavier"
    }
    bias_filler {
      type: "constant"
      value: 0.1
    }
  }
  param: "dec_mask_conv2_w"
  param: "dec_mask_conv2_b"
}
layers {
  bottom: "ep_conv_5x5_1_57"
  top: "ep_conv_5x5_1_57"
  name: "relu_883"
  type: RELU
}
layers {
  bottom: "ep_conv_5x5_1_57"
  top: "ep_upsample_58"
  name: "upsample_914"
  type: UPSAMPLING
  upsampling_param {
    kernel_size: 2
  }
}
layers {
  bottom: "ep_upsample_58"
  top: "ep_t1_conv_5x5_1_816"
  name: "t1_conv_5x5_1_945"
  type: CONVOLUTION
  blobs_lr: 1
  blobs_lr: 2
  weight_decay: 1
  weight_decay: 0
  convolution_param {
    num_output: 1
    pad: 2
    kernel_size: 5
    stride: 1
    weight_filler {
      type: "xavier"
    }
    bias_filler {
      type: "constant"
      value: 0.1
    }
  }
  param: "dec_mask_conv3_w"
  param: "dec_mask_conv3_b"
}
layers {
  bottom: "ep_split_59"
  bottom: "rotations2"
  top: "ep_tensor_product_60"
  name: "tensor_product_16"
  type: TENSOR_PRODUCT
  blobs_lr: 1
  blobs_lr: 2
  weight_decay: 1
  weight_decay: 0
  inner_product_param {
    num_output: 512
    weight_filler {
      type: "xavier"
    }
    bias_filler {
      type: "constant"
      value: 0.1
    }
  }
  param: "tensor_view_w"
  param: "tensor_view_b"
}
layers {
  bottom: "ep_tensor_product_60"
  top: "ep_relu_61"
  name: "relu_47"
  type: RELU
}
layers {
  bottom: "ep_relu_61"
  top: "ep_split_63"
  top: "ep_split_84"
  name: "split_78"
  type: SPLIT
}
layers {
  bottom: "ep_split_62"
  bottom: "ep_split_63"
  top: "ep_concat_64"
  name: "concat_109"
  type: CONCAT
  concat_param {
    concat_dim: 1
  }
}
layers {
  bottom: "ep_concat_64"
  top: "ep_inner_product_65"
  name: "inner_product_140"
  type: INNER_PRODUCT
  blobs_lr: 1
  blobs_lr: 2
  weight_decay: 1
  weight_decay: 0
  inner_product_param {
    num_output: 1024
    weight_filler {
      type: "xavier"
    }
    bias_filler {
      type: "constant"
      value: 0.1
    }
  }
  param: "dec_fc1_w"
  param: "dec_fc1_b"
}
layers {
  bottom: "ep_inner_product_65"
  top: "ep_inner_product_65"
  name: "relu_171"
  type: RELU
}
layers {
  bottom: "ep_inner_product_65"
  top: "ep_inner_product_66"
  name: "inner_product_202"
  type: INNER_PRODUCT
  blobs_lr: 1
  blobs_lr: 2
  weight_decay: 1
  weight_decay: 0
  inner_product_param {
    num_output: 1024
    weight_filler {
      type: "xavier"
    }
    bias_filler {
      type: "constant"
      value: 0.1
    }
  }
  param: "dec_fc2_w"
  param: "dec_fc2_b"
}
layers {
  bottom: "ep_inner_product_66"
  top: "ep_relu_67"
  name: "relu_233"
  type: RELU
}
layers {
  bottom: "ep_relu_67"
  top: "ep_split_68"
  top: "ep_split_76"
  name: "split_264"
  type: SPLIT
}
layers {
  bottom: "ep_split_68"
  top: "ep_inner_product_69"
  name: "inner_product_295"
  type: INNER_PRODUCT
  blobs_lr: 1
  blobs_lr: 2
  weight_decay: 1
  weight_decay: 0
  inner_product_param {
    num_output: 16384
    weight_filler {
      type: "xavier"
    }
    bias_filler {
      type: "constant"
      value: 0.1
    }
  }
  param: "dec_img_fc1_w"
  param: "dec_img_fc1_b"
}
layers {
  bottom: "ep_inner_product_69"
  top: "ep_inner_product_69"
  name: "relu_326"
  type: RELU
}
layers {
  bottom: "ep_inner_product_69"
  top: "ep_folding_70"
  name: "folding_357"
  type: FOLDING
  folding_param {
    channels_folded: 256
    height_folded: 8
    width_folded: 8
  }
}
layers {
  bottom: "ep_folding_70"
  top: "ep_upsample_71"
  name: "upsample_388"
  type: UPSAMPLING
  upsampling_param {
    kernel_size: 2
  }
}
layers {
  bottom: "ep_upsample_71"
  top: "ep_conv_5x5_1_72"
  name: "conv_5x5_1_419"
  type: CONVOLUTION
  blobs_lr: 1
  blobs_lr: 2
  weight_decay: 1
  weight_decay: 0
  convolution_param {
    num_output: 128
    pad: 2
    kernel_size: 5
    stride: 1
    weight_filler {
      type: "xavier"
    }
    bias_filler {
      type: "constant"
      value: 0.1
    }
  }
  param: "dec_img_conv1_w"
  param: "dec_img_conv1_b"
}
layers {
  bottom: "ep_conv_5x5_1_72"
  top: "ep_conv_5x5_1_72"
  name: "relu_450"
  type: RELU
}
layers {
  bottom: "ep_conv_5x5_1_72"
  top: "ep_upsample_73"
  name: "upsample_481"
  type: UPSAMPLING
  upsampling_param {
    kernel_size: 2
  }
}
layers {
  bottom: "ep_upsample_73"
  top: "ep_conv_5x5_1_74"
  name: "conv_5x5_1_512"
  type: CONVOLUTION
  blobs_lr: 1
  blobs_lr: 2
  weight_decay: 1
  weight_decay: 0
  convolution_param {
    num_output: 64
    pad: 2
    kernel_size: 5
    stride: 1
    weight_filler {
      type: "xavier"
    }
    bias_filler {
      type: "constant"
      value: 0.1
    }
  }
  param: "dec_img_conv2_w"
  param: "dec_img_conv2_b"
}
layers {
  bottom: "ep_conv_5x5_1_74"
  top: "ep_conv_5x5_1_74"
  name: "relu_543"
  type: RELU
}
layers {
  bottom: "ep_conv_5x5_1_74"
  top: "ep_upsample_75"
  name: "upsample_574"
  type: UPSAMPLING
  upsampling_param {
    kernel_size: 2
  }
}
layers {
  bottom: "ep_upsample_75"
  top: "ep_t2_conv_5x5_1_786"
  name: "t2_conv_5x5_1_605"
  type: CONVOLUTION
  blobs_lr: 1
  blobs_lr: 2
  weight_decay: 1
  weight_decay: 0
  convolution_param {
    num_output: 3
    pad: 2
    kernel_size: 5
    stride: 1
    weight_filler {
      type: "xavier"
    }
    bias_filler {
      type: "constant"
      value: 0.1
    }
  }
  param: "dec_img_conv3_w"
  param: "dec_img_conv3_b"
}
layers {
  bottom: "ep_split_76"
  top: "ep_inner_product_77"
  name: "inner_product_636"
  type: INNER_PRODUCT
  blobs_lr: 1
  blobs_lr: 2
  weight_decay: 1
  weight_decay: 0
  inner_product_param {
    num_output: 8192
    weight_filler {
      type: "xavier"
    }
    bias_filler {
      type: "constant"
      value: 0.1
    }
  }
  param: "dec_mask_fc1_w"
  param: "dec_mask_fc1_b"
}
layers {
  bottom: "ep_inner_product_77"
  top: "ep_inner_product_77"
  name: "relu_667"
  type: RELU
}
layers {
  bottom: "ep_inner_product_77"
  top: "ep_folding_78"
  name: "folding_698"
  type: FOLDING
  folding_param {
    channels_folded: 128
    height_folded: 8
    width_folded: 8
  }
}
layers {
  bottom: "ep_folding_78"
  top: "ep_upsample_79"
  name: "upsample_729"
  type: UPSAMPLING
  upsampling_param {
    kernel_size: 2
  }
}
layers {
  bottom: "ep_upsample_79"
  top: "ep_conv_5x5_1_80"
  name: "conv_5x5_1_760"
  type: CONVOLUTION
  blobs_lr: 1
  blobs_lr: 2
  weight_decay: 1
  weight_decay: 0
  convolution_param {
    num_output: 64
    pad: 2
    kernel_size: 5
    stride: 1
    weight_filler {
      type: "xavier"
    }
    bias_filler {
      type: "constant"
      value: 0.1
    }
  }
  param: "dec_mask_conv1_w"
  param: "dec_mask_conv1_b"
}
layers {
  bottom: "ep_conv_5x5_1_80"
  top: "ep_conv_5x5_1_80"
  name: "relu_791"
  type: RELU
}
layers {
  bottom: "ep_conv_5x5_1_80"
  top: "ep_upsample_81"
  name: "upsample_822"
  type: UPSAMPLING
  upsampling_param {
    kernel_size: 2
  }
}
layers {
  bottom: "ep_upsample_81"
  top: "ep_conv_5x5_1_82"
  name: "conv_5x5_1_853"
  type: CONVOLUTION
  blobs_lr: 1
  blobs_lr: 2
  weight_decay: 1
  weight_decay: 0
  convolution_param {
    num_output: 32
    pad: 2
    kernel_size: 5
    stride: 1
    weight_filler {
      type: "xavier"
    }
    bias_filler {
      type: "constant"
      value: 0.1
    }
  }
  param: "dec_mask_conv2_w"
  param: "dec_mask_conv2_b"
}
layers {
  bottom: "ep_conv_5x5_1_82"
  top: "ep_conv_5x5_1_82"
  name: "relu_884"
  type: RELU
}
layers {
  bottom: "ep_conv_5x5_1_82"
  top: "ep_upsample_83"
  name: "upsample_915"
  type: UPSAMPLING
  upsampling_param {
    kernel_size: 2
  }
}
layers {
  bottom: "ep_upsample_83"
  top: "ep_t2_conv_5x5_1_817"
  name: "t2_conv_5x5_1_946"
  type: CONVOLUTION
  blobs_lr: 1
  blobs_lr: 2
  weight_decay: 1
  weight_decay: 0
  convolution_param {
    num_output: 1
    pad: 2
    kernel_size: 5
    stride: 1
    weight_filler {
      type: "xavier"
    }
    bias_filler {
      type: "constant"
      value: 0.1
    }
  }
  param: "dec_mask_conv3_w"
  param: "dec_mask_conv3_b"
}
layers {
  bottom: "ep_split_84"
  bottom: "rotations3"
  top: "ep_tensor_product_85"
  name: "tensor_product_17"
  type: TENSOR_PRODUCT
  blobs_lr: 1
  blobs_lr: 2
  weight_decay: 1
  weight_decay: 0
  inner_product_param {
    num_output: 512
    weight_filler {
      type: "xavier"
    }
    bias_filler {
      type: "constant"
      value: 0.1
    }
  }
  param: "tensor_view_w"
  param: "tensor_view_b"
}
layers {
  bottom: "ep_tensor_product_85"
  top: "ep_relu_86"
  name: "relu_48"
  type: RELU
}
layers {
  bottom: "ep_relu_86"
  top: "ep_split_88"
  top: "ep_split_109"
  name: "split_79"
  type: SPLIT
}
layers {
  bottom: "ep_split_87"
  bottom: "ep_split_88"
  top: "ep_concat_89"
  name: "concat_110"
  type: CONCAT
  concat_param {
    concat_dim: 1
  }
}
layers {
  bottom: "ep_concat_89"
  top: "ep_inner_product_90"
  name: "inner_product_141"
  type: INNER_PRODUCT
  blobs_lr: 1
  blobs_lr: 2
  weight_decay: 1
  weight_decay: 0
  inner_product_param {
    num_output: 1024
    weight_filler {
      type: "xavier"
    }
    bias_filler {
      type: "constant"
      value: 0.1
    }
  }
  param: "dec_fc1_w"
  param: "dec_fc1_b"
}
layers {
  bottom: "ep_inner_product_90"
  top: "ep_inner_product_90"
  name: "relu_172"
  type: RELU
}
layers {
  bottom: "ep_inner_product_90"
  top: "ep_inner_product_91"
  name: "inner_product_203"
  type: INNER_PRODUCT
  blobs_lr: 1
  blobs_lr: 2
  weight_decay: 1
  weight_decay: 0
  inner_product_param {
    num_output: 1024
    weight_filler {
      type: "xavier"
    }
    bias_filler {
      type: "constant"
      value: 0.1
    }
  }
  param: "dec_fc2_w"
  param: "dec_fc2_b"
}
layers {
  bottom: "ep_inner_product_91"
  top: "ep_relu_92"
  name: "relu_234"
  type: RELU
}
layers {
  bottom: "ep_relu_92"
  top: "ep_split_93"
  top: "ep_split_101"
  name: "split_265"
  type: SPLIT
}
layers {
  bottom: "ep_split_93"
  top: "ep_inner_product_94"
  name: "inner_product_296"
  type: INNER_PRODUCT
  blobs_lr: 1
  blobs_lr: 2
  weight_decay: 1
  weight_decay: 0
  inner_product_param {
    num_output: 16384
    weight_filler {
      type: "xavier"
    }
    bias_filler {
      type: "constant"
      value: 0.1
    }
  }
  param: "dec_img_fc1_w"
  param: "dec_img_fc1_b"
}
layers {
  bottom: "ep_inner_product_94"
  top: "ep_inner_product_94"
  name: "relu_327"
  type: RELU
}
layers {
  bottom: "ep_inner_product_94"
  top: "ep_folding_95"
  name: "folding_358"
  type: FOLDING
  folding_param {
    channels_folded: 256
    height_folded: 8
    width_folded: 8
  }
}
layers {
  bottom: "ep_folding_95"
  top: "ep_upsample_96"
  name: "upsample_389"
  type: UPSAMPLING
  upsampling_param {
    kernel_size: 2
  }
}
layers {
  bottom: "ep_upsample_96"
  top: "ep_conv_5x5_1_97"
  name: "conv_5x5_1_420"
  type: CONVOLUTION
  blobs_lr: 1
  blobs_lr: 2
  weight_decay: 1
  weight_decay: 0
  convolution_param {
    num_output: 128
    pad: 2
    kernel_size: 5
    stride: 1
    weight_filler {
      type: "xavier"
    }
    bias_filler {
      type: "constant"
      value: 0.1
    }
  }
  param: "dec_img_conv1_w"
  param: "dec_img_conv1_b"
}
layers {
  bottom: "ep_conv_5x5_1_97"
  top: "ep_conv_5x5_1_97"
  name: "relu_451"
  type: RELU
}
layers {
  bottom: "ep_conv_5x5_1_97"
  top: "ep_upsample_98"
  name: "upsample_482"
  type: UPSAMPLING
  upsampling_param {
    kernel_size: 2
  }
}
layers {
  bottom: "ep_upsample_98"
  top: "ep_conv_5x5_1_99"
  name: "conv_5x5_1_513"
  type: CONVOLUTION
  blobs_lr: 1
  blobs_lr: 2
  weight_decay: 1
  weight_decay: 0
  convolution_param {
    num_output: 64
    pad: 2
    kernel_size: 5
    stride: 1
    weight_filler {
      type: "xavier"
    }
    bias_filler {
      type: "constant"
      value: 0.1
    }
  }
  param: "dec_img_conv2_w"
  param: "dec_img_conv2_b"
}
layers {
  bottom: "ep_conv_5x5_1_99"
  top: "ep_conv_5x5_1_99"
  name: "relu_544"
  type: RELU
}
layers {
  bottom: "ep_conv_5x5_1_99"
  top: "ep_upsample_100"
  name: "upsample_575"
  type: UPSAMPLING
  upsampling_param {
    kernel_size: 2
  }
}
layers {
  bottom: "ep_upsample_100"
  top: "ep_t3_conv_5x5_1_787"
  name: "t3_conv_5x5_1_606"
  type: CONVOLUTION
  blobs_lr: 1
  blobs_lr: 2
  weight_decay: 1
  weight_decay: 0
  convolution_param {
    num_output: 3
    pad: 2
    kernel_size: 5
    stride: 1
    weight_filler {
      type: "xavier"
    }
    bias_filler {
      type: "constant"
      value: 0.1
    }
  }
  param: "dec_img_conv3_w"
  param: "dec_img_conv3_b"
}
layers {
  bottom: "ep_split_101"
  top: "ep_inner_product_102"
  name: "inner_product_637"
  type: INNER_PRODUCT
  blobs_lr: 1
  blobs_lr: 2
  weight_decay: 1
  weight_decay: 0
  inner_product_param {
    num_output: 8192
    weight_filler {
      type: "xavier"
    }
    bias_filler {
      type: "constant"
      value: 0.1
    }
  }
  param: "dec_mask_fc1_w"
  param: "dec_mask_fc1_b"
}
layers {
  bottom: "ep_inner_product_102"
  top: "ep_inner_product_102"
  name: "relu_668"
  type: RELU
}
layers {
  bottom: "ep_inner_product_102"
  top: "ep_folding_103"
  name: "folding_699"
  type: FOLDING
  folding_param {
    channels_folded: 128
    height_folded: 8
    width_folded: 8
  }
}
layers {
  bottom: "ep_folding_103"
  top: "ep_upsample_104"
  name: "upsample_730"
  type: UPSAMPLING
  upsampling_param {
    kernel_size: 2
  }
}
layers {
  bottom: "ep_upsample_104"
  top: "ep_conv_5x5_1_105"
  name: "conv_5x5_1_761"
  type: CONVOLUTION
  blobs_lr: 1
  blobs_lr: 2
  weight_decay: 1
  weight_decay: 0
  convolution_param {
    num_output: 64
    pad: 2
    kernel_size: 5
    stride: 1
    weight_filler {
      type: "xavier"
    }
    bias_filler {
      type: "constant"
      value: 0.1
    }
  }
  param: "dec_mask_conv1_w"
  param: "dec_mask_conv1_b"
}
layers {
  bottom: "ep_conv_5x5_1_105"
  top: "ep_conv_5x5_1_105"
  name: "relu_792"
  type: RELU
}
layers {
  bottom: "ep_conv_5x5_1_105"
  top: "ep_upsample_106"
  name: "upsample_823"
  type: UPSAMPLING
  upsampling_param {
    kernel_size: 2
  }
}
layers {
  bottom: "ep_upsample_106"
  top: "ep_conv_5x5_1_107"
  name: "conv_5x5_1_854"
  type: CONVOLUTION
  blobs_lr: 1
  blobs_lr: 2
  weight_decay: 1
  weight_decay: 0
  convolution_param {
    num_output: 32
    pad: 2
    kernel_size: 5
    stride: 1
    weight_filler {
      type: "xavier"
    }
    bias_filler {
      type: "constant"
      value: 0.1
    }
  }
  param: "dec_mask_conv2_w"
  param: "dec_mask_conv2_b"
}
layers {
  bottom: "ep_conv_5x5_1_107"
  top: "ep_conv_5x5_1_107"
  name: "relu_885"
  type: RELU
}
layers {
  bottom: "ep_conv_5x5_1_107"
  top: "ep_upsample_108"
  name: "upsample_916"
  type: UPSAMPLING
  upsampling_param {
    kernel_size: 2
  }
}
layers {
  bottom: "ep_upsample_108"
  top: "ep_t3_conv_5x5_1_818"
  name: "t3_conv_5x5_1_947"
  type: CONVOLUTION
  blobs_lr: 1
  blobs_lr: 2
  weight_decay: 1
  weight_decay: 0
  convolution_param {
    num_output: 1
    pad: 2
    kernel_size: 5
    stride: 1
    weight_filler {
      type: "xavier"
    }
    bias_filler {
      type: "constant"
      value: 0.1
    }
  }
  param: "dec_mask_conv3_w"
  param: "dec_mask_conv3_b"
}
layers {
  bottom: "ep_split_109"
  bottom: "rotations4"
  top: "ep_tensor_product_110"
  name: "tensor_product_18"
  type: TENSOR_PRODUCT
  blobs_lr: 1
  blobs_lr: 2
  weight_decay: 1
  weight_decay: 0
  inner_product_param {
    num_output: 512
    weight_filler {
      type: "xavier"
    }
    bias_filler {
      type: "constant"
      value: 0.1
    }
  }
  param: "tensor_view_w"
  param: "tensor_view_b"
}
layers {
  bottom: "ep_tensor_product_110"
  top: "ep_relu_111"
  name: "relu_49"
  type: RELU
}
layers {
  bottom: "ep_relu_111"
  top: "ep_split_113"
  top: "ep_split_134"
  name: "split_80"
  type: SPLIT
}
layers {
  bottom: "ep_split_112"
  bottom: "ep_split_113"
  top: "ep_concat_114"
  name: "concat_111"
  type: CONCAT
  concat_param {
    concat_dim: 1
  }
}
layers {
  bottom: "ep_concat_114"
  top: "ep_inner_product_115"
  name: "inner_product_142"
  type: INNER_PRODUCT
  blobs_lr: 1
  blobs_lr: 2
  weight_decay: 1
  weight_decay: 0
  inner_product_param {
    num_output: 1024
    weight_filler {
      type: "xavier"
    }
    bias_filler {
      type: "constant"
      value: 0.1
    }
  }
  param: "dec_fc1_w"
  param: "dec_fc1_b"
}
layers {
  bottom: "ep_inner_product_115"
  top: "ep_inner_product_115"
  name: "relu_173"
  type: RELU
}
layers {
  bottom: "ep_inner_product_115"
  top: "ep_inner_product_116"
  name: "inner_product_204"
  type: INNER_PRODUCT
  blobs_lr: 1
  blobs_lr: 2
  weight_decay: 1
  weight_decay: 0
  inner_product_param {
    num_output: 1024
    weight_filler {
      type: "xavier"
    }
    bias_filler {
      type: "constant"
      value: 0.1
    }
  }
  param: "dec_fc2_w"
  param: "dec_fc2_b"
}
layers {
  bottom: "ep_inner_product_116"
  top: "ep_relu_117"
  name: "relu_235"
  type: RELU
}
layers {
  bottom: "ep_relu_117"
  top: "ep_split_118"
  top: "ep_split_126"
  name: "split_266"
  type: SPLIT
}
layers {
  bottom: "ep_split_118"
  top: "ep_inner_product_119"
  name: "inner_product_297"
  type: INNER_PRODUCT
  blobs_lr: 1
  blobs_lr: 2
  weight_decay: 1
  weight_decay: 0
  inner_product_param {
    num_output: 16384
    weight_filler {
      type: "xavier"
    }
    bias_filler {
      type: "constant"
      value: 0.1
    }
  }
  param: "dec_img_fc1_w"
  param: "dec_img_fc1_b"
}
layers {
  bottom: "ep_inner_product_119"
  top: "ep_inner_product_119"
  name: "relu_328"
  type: RELU
}
layers {
  bottom: "ep_inner_product_119"
  top: "ep_folding_120"
  name: "folding_359"
  type: FOLDING
  folding_param {
    channels_folded: 256
    height_folded: 8
    width_folded: 8
  }
}
layers {
  bottom: "ep_folding_120"
  top: "ep_upsample_121"
  name: "upsample_390"
  type: UPSAMPLING
  upsampling_param {
    kernel_size: 2
  }
}
layers {
  bottom: "ep_upsample_121"
  top: "ep_conv_5x5_1_122"
  name: "conv_5x5_1_421"
  type: CONVOLUTION
  blobs_lr: 1
  blobs_lr: 2
  weight_decay: 1
  weight_decay: 0
  convolution_param {
    num_output: 128
    pad: 2
    kernel_size: 5
    stride: 1
    weight_filler {
      type: "xavier"
    }
    bias_filler {
      type: "constant"
      value: 0.1
    }
  }
  param: "dec_img_conv1_w"
  param: "dec_img_conv1_b"
}
layers {
  bottom: "ep_conv_5x5_1_122"
  top: "ep_conv_5x5_1_122"
  name: "relu_452"
  type: RELU
}
layers {
  bottom: "ep_conv_5x5_1_122"
  top: "ep_upsample_123"
  name: "upsample_483"
  type: UPSAMPLING
  upsampling_param {
    kernel_size: 2
  }
}
layers {
  bottom: "ep_upsample_123"
  top: "ep_conv_5x5_1_124"
  name: "conv_5x5_1_514"
  type: CONVOLUTION
  blobs_lr: 1
  blobs_lr: 2
  weight_decay: 1
  weight_decay: 0
  convolution_param {
    num_output: 64
    pad: 2
    kernel_size: 5
    stride: 1
    weight_filler {
      type: "xavier"
    }
    bias_filler {
      type: "constant"
      value: 0.1
    }
  }
  param: "dec_img_conv2_w"
  param: "dec_img_conv2_b"
}
layers {
  bottom: "ep_conv_5x5_1_124"
  top: "ep_conv_5x5_1_124"
  name: "relu_545"
  type: RELU
}
layers {
  bottom: "ep_conv_5x5_1_124"
  top: "ep_upsample_125"
  name: "upsample_576"
  type: UPSAMPLING
  upsampling_param {
    kernel_size: 2
  }
}
layers {
  bottom: "ep_upsample_125"
  top: "ep_t4_conv_5x5_1_788"
  name: "t4_conv_5x5_1_607"
  type: CONVOLUTION
  blobs_lr: 1
  blobs_lr: 2
  weight_decay: 1
  weight_decay: 0
  convolution_param {
    num_output: 3
    pad: 2
    kernel_size: 5
    stride: 1
    weight_filler {
      type: "xavier"
    }
    bias_filler {
      type: "constant"
      value: 0.1
    }
  }
  param: "dec_img_conv3_w"
  param: "dec_img_conv3_b"
}
layers {
  bottom: "ep_split_126"
  top: "ep_inner_product_127"
  name: "inner_product_638"
  type: INNER_PRODUCT
  blobs_lr: 1
  blobs_lr: 2
  weight_decay: 1
  weight_decay: 0
  inner_product_param {
    num_output: 8192
    weight_filler {
      type: "xavier"
    }
    bias_filler {
      type: "constant"
      value: 0.1
    }
  }
  param: "dec_mask_fc1_w"
  param: "dec_mask_fc1_b"
}
layers {
  bottom: "ep_inner_product_127"
  top: "ep_inner_product_127"
  name: "relu_669"
  type: RELU
}
layers {
  bottom: "ep_inner_product_127"
  top: "ep_folding_128"
  name: "folding_700"
  type: FOLDING
  folding_param {
    channels_folded: 128
    height_folded: 8
    width_folded: 8
  }
}
layers {
  bottom: "ep_folding_128"
  top: "ep_upsample_129"
  name: "upsample_731"
  type: UPSAMPLING
  upsampling_param {
    kernel_size: 2
  }
}
layers {
  bottom: "ep_upsample_129"
  top: "ep_conv_5x5_1_130"
  name: "conv_5x5_1_762"
  type: CONVOLUTION
  blobs_lr: 1
  blobs_lr: 2
  weight_decay: 1
  weight_decay: 0
  convolution_param {
    num_output: 64
    pad: 2
    kernel_size: 5
    stride: 1
    weight_filler {
      type: "xavier"
    }
    bias_filler {
      type: "constant"
      value: 0.1
    }
  }
  param: "dec_mask_conv1_w"
  param: "dec_mask_conv1_b"
}
layers {
  bottom: "ep_conv_5x5_1_130"
  top: "ep_conv_5x5_1_130"
  name: "relu_793"
  type: RELU
}
layers {
  bottom: "ep_conv_5x5_1_130"
  top: "ep_upsample_131"
  name: "upsample_824"
  type: UPSAMPLING
  upsampling_param {
    kernel_size: 2
  }
}
layers {
  bottom: "ep_upsample_131"
  top: "ep_conv_5x5_1_132"
  name: "conv_5x5_1_855"
  type: CONVOLUTION
  blobs_lr: 1
  blobs_lr: 2
  weight_decay: 1
  weight_decay: 0
  convolution_param {
    num_output: 32
    pad: 2
    kernel_size: 5
    stride: 1
    weight_filler {
      type: "xavier"
    }
    bias_filler {
      type: "constant"
      value: 0.1
    }
  }
  param: "dec_mask_conv2_w"
  param: "dec_mask_conv2_b"
}
layers {
  bottom: "ep_conv_5x5_1_132"
  top: "ep_conv_5x5_1_132"
  name: "relu_886"
  type: RELU
}
layers {
  bottom: "ep_conv_5x5_1_132"
  top: "ep_upsample_133"
  name: "upsample_917"
  type: UPSAMPLING
  upsampling_param {
    kernel_size: 2
  }
}
layers {
  bottom: "ep_upsample_133"
  top: "ep_t4_conv_5x5_1_819"
  name: "t4_conv_5x5_1_948"
  type: CONVOLUTION
  blobs_lr: 1
  blobs_lr: 2
  weight_decay: 1
  weight_decay: 0
  convolution_param {
    num_output: 1
    pad: 2
    kernel_size: 5
    stride: 1
    weight_filler {
      type: "xavier"
    }
    bias_filler {
      type: "constant"
      value: 0.1
    }
  }
  param: "dec_mask_conv3_w"
  param: "dec_mask_conv3_b"
}
layers {
  bottom: "ep_split_134"
  bottom: "rotations5"
  top: "ep_tensor_product_135"
  name: "tensor_product_19"
  type: TENSOR_PRODUCT
  blobs_lr: 1
  blobs_lr: 2
  weight_decay: 1
  weight_decay: 0
  inner_product_param {
    num_output: 512
    weight_filler {
      type: "xavier"
    }
    bias_filler {
      type: "constant"
      value: 0.1
    }
  }
  param: "tensor_view_w"
  param: "tensor_view_b"
}
layers {
  bottom: "ep_tensor_product_135"
  top: "ep_relu_136"
  name: "relu_50"
  type: RELU
}
layers {
  bottom: "ep_relu_136"
  top: "ep_split_138"
  top: "ep_split_159"
  name: "split_81"
  type: SPLIT
}
layers {
  bottom: "ep_split_137"
  bottom: "ep_split_138"
  top: "ep_concat_139"
  name: "concat_112"
  type: CONCAT
  concat_param {
    concat_dim: 1
  }
}
layers {
  bottom: "ep_concat_139"
  top: "ep_inner_product_140"
  name: "inner_product_143"
  type: INNER_PRODUCT
  blobs_lr: 1
  blobs_lr: 2
  weight_decay: 1
  weight_decay: 0
  inner_product_param {
    num_output: 1024
    weight_filler {
      type: "xavier"
    }
    bias_filler {
      type: "constant"
      value: 0.1
    }
  }
  param: "dec_fc1_w"
  param: "dec_fc1_b"
}
layers {
  bottom: "ep_inner_product_140"
  top: "ep_inner_product_140"
  name: "relu_174"
  type: RELU
}
layers {
  bottom: "ep_inner_product_140"
  top: "ep_inner_product_141"
  name: "inner_product_205"
  type: INNER_PRODUCT
  blobs_lr: 1
  blobs_lr: 2
  weight_decay: 1
  weight_decay: 0
  inner_product_param {
    num_output: 1024
    weight_filler {
      type: "xavier"
    }
    bias_filler {
      type: "constant"
      value: 0.1
    }
  }
  param: "dec_fc2_w"
  param: "dec_fc2_b"
}
layers {
  bottom: "ep_inner_product_141"
  top: "ep_relu_142"
  name: "relu_236"
  type: RELU
}
layers {
  bottom: "ep_relu_142"
  top: "ep_split_143"
  top: "ep_split_151"
  name: "split_267"
  type: SPLIT
}
layers {
  bottom: "ep_split_143"
  top: "ep_inner_product_144"
  name: "inner_product_298"
  type: INNER_PRODUCT
  blobs_lr: 1
  blobs_lr: 2
  weight_decay: 1
  weight_decay: 0
  inner_product_param {
    num_output: 16384
    weight_filler {
      type: "xavier"
    }
    bias_filler {
      type: "constant"
      value: 0.1
    }
  }
  param: "dec_img_fc1_w"
  param: "dec_img_fc1_b"
}
layers {
  bottom: "ep_inner_product_144"
  top: "ep_inner_product_144"
  name: "relu_329"
  type: RELU
}
layers {
  bottom: "ep_inner_product_144"
  top: "ep_folding_145"
  name: "folding_360"
  type: FOLDING
  folding_param {
    channels_folded: 256
    height_folded: 8
    width_folded: 8
  }
}
layers {
  bottom: "ep_folding_145"
  top: "ep_upsample_146"
  name: "upsample_391"
  type: UPSAMPLING
  upsampling_param {
    kernel_size: 2
  }
}
layers {
  bottom: "ep_upsample_146"
  top: "ep_conv_5x5_1_147"
  name: "conv_5x5_1_422"
  type: CONVOLUTION
  blobs_lr: 1
  blobs_lr: 2
  weight_decay: 1
  weight_decay: 0
  convolution_param {
    num_output: 128
    pad: 2
    kernel_size: 5
    stride: 1
    weight_filler {
      type: "xavier"
    }
    bias_filler {
      type: "constant"
      value: 0.1
    }
  }
  param: "dec_img_conv1_w"
  param: "dec_img_conv1_b"
}
layers {
  bottom: "ep_conv_5x5_1_147"
  top: "ep_conv_5x5_1_147"
  name: "relu_453"
  type: RELU
}
layers {
  bottom: "ep_conv_5x5_1_147"
  top: "ep_upsample_148"
  name: "upsample_484"
  type: UPSAMPLING
  upsampling_param {
    kernel_size: 2
  }
}
layers {
  bottom: "ep_upsample_148"
  top: "ep_conv_5x5_1_149"
  name: "conv_5x5_1_515"
  type: CONVOLUTION
  blobs_lr: 1
  blobs_lr: 2
  weight_decay: 1
  weight_decay: 0
  convolution_param {
    num_output: 64
    pad: 2
    kernel_size: 5
    stride: 1
    weight_filler {
      type: "xavier"
    }
    bias_filler {
      type: "constant"
      value: 0.1
    }
  }
  param: "dec_img_conv2_w"
  param: "dec_img_conv2_b"
}
layers {
  bottom: "ep_conv_5x5_1_149"
  top: "ep_conv_5x5_1_149"
  name: "relu_546"
  type: RELU
}
layers {
  bottom: "ep_conv_5x5_1_149"
  top: "ep_upsample_150"
  name: "upsample_577"
  type: UPSAMPLING
  upsampling_param {
    kernel_size: 2
  }
}
layers {
  bottom: "ep_upsample_150"
  top: "ep_t5_conv_5x5_1_789"
  name: "t5_conv_5x5_1_608"
  type: CONVOLUTION
  blobs_lr: 1
  blobs_lr: 2
  weight_decay: 1
  weight_decay: 0
  convolution_param {
    num_output: 3
    pad: 2
    kernel_size: 5
    stride: 1
    weight_filler {
      type: "xavier"
    }
    bias_filler {
      type: "constant"
      value: 0.1
    }
  }
  param: "dec_img_conv3_w"
  param: "dec_img_conv3_b"
}
layers {
  bottom: "ep_split_151"
  top: "ep_inner_product_152"
  name: "inner_product_639"
  type: INNER_PRODUCT
  blobs_lr: 1
  blobs_lr: 2
  weight_decay: 1
  weight_decay: 0
  inner_product_param {
    num_output: 8192
    weight_filler {
      type: "xavier"
    }
    bias_filler {
      type: "constant"
      value: 0.1
    }
  }
  param: "dec_mask_fc1_w"
  param: "dec_mask_fc1_b"
}
layers {
  bottom: "ep_inner_product_152"
  top: "ep_inner_product_152"
  name: "relu_670"
  type: RELU
}
layers {
  bottom: "ep_inner_product_152"
  top: "ep_folding_153"
  name: "folding_701"
  type: FOLDING
  folding_param {
    channels_folded: 128
    height_folded: 8
    width_folded: 8
  }
}
layers {
  bottom: "ep_folding_153"
  top: "ep_upsample_154"
  name: "upsample_732"
  type: UPSAMPLING
  upsampling_param {
    kernel_size: 2
  }
}
layers {
  bottom: "ep_upsample_154"
  top: "ep_conv_5x5_1_155"
  name: "conv_5x5_1_763"
  type: CONVOLUTION
  blobs_lr: 1
  blobs_lr: 2
  weight_decay: 1
  weight_decay: 0
  convolution_param {
    num_output: 64
    pad: 2
    kernel_size: 5
    stride: 1
    weight_filler {
      type: "xavier"
    }
    bias_filler {
      type: "constant"
      value: 0.1
    }
  }
  param: "dec_mask_conv1_w"
  param: "dec_mask_conv1_b"
}
layers {
  bottom: "ep_conv_5x5_1_155"
  top: "ep_conv_5x5_1_155"
  name: "relu_794"
  type: RELU
}
layers {
  bottom: "ep_conv_5x5_1_155"
  top: "ep_upsample_156"
  name: "upsample_825"
  type: UPSAMPLING
  upsampling_param {
    kernel_size: 2
  }
}
layers {
  bottom: "ep_upsample_156"
  top: "ep_conv_5x5_1_157"
  name: "conv_5x5_1_856"
  type: CONVOLUTION
  blobs_lr: 1
  blobs_lr: 2
  weight_decay: 1
  weight_decay: 0
  convolution_param {
    num_output: 32
    pad: 2
    kernel_size: 5
    stride: 1
    weight_filler {
      type: "xavier"
    }
    bias_filler {
      type: "constant"
      value: 0.1
    }
  }
  param: "dec_mask_conv2_w"
  param: "dec_mask_conv2_b"
}
layers {
  bottom: "ep_conv_5x5_1_157"
  top: "ep_conv_5x5_1_157"
  name: "relu_887"
  type: RELU
}
layers {
  bottom: "ep_conv_5x5_1_157"
  top: "ep_upsample_158"
  name: "upsample_918"
  type: UPSAMPLING
  upsampling_param {
    kernel_size: 2
  }
}
layers {
  bottom: "ep_upsample_158"
  top: "ep_t5_conv_5x5_1_820"
  name: "t5_conv_5x5_1_949"
  type: CONVOLUTION
  blobs_lr: 1
  blobs_lr: 2
  weight_decay: 1
  weight_decay: 0
  convolution_param {
    num_output: 1
    pad: 2
    kernel_size: 5
    stride: 1
    weight_filler {
      type: "xavier"
    }
    bias_filler {
      type: "constant"
      value: 0.1
    }
  }
  param: "dec_mask_conv3_w"
  param: "dec_mask_conv3_b"
}
layers {
  bottom: "ep_split_159"
  bottom: "rotations6"
  top: "ep_tensor_product_160"
  name: "tensor_product_20"
  type: TENSOR_PRODUCT
  blobs_lr: 1
  blobs_lr: 2
  weight_decay: 1
  weight_decay: 0
  inner_product_param {
    num_output: 512
    weight_filler {
      type: "xavier"
    }
    bias_filler {
      type: "constant"
      value: 0.1
    }
  }
  param: "tensor_view_w"
  param: "tensor_view_b"
}
layers {
  bottom: "ep_tensor_product_160"
  top: "ep_relu_161"
  name: "relu_51"
  type: RELU
}
layers {
  bottom: "ep_relu_161"
  top: "ep_split_163"
  top: "ep_split_184"
  name: "split_82"
  type: SPLIT
}
layers {
  bottom: "ep_split_162"
  bottom: "ep_split_163"
  top: "ep_concat_164"
  name: "concat_113"
  type: CONCAT
  concat_param {
    concat_dim: 1
  }
}
layers {
  bottom: "ep_concat_164"
  top: "ep_inner_product_165"
  name: "inner_product_144"
  type: INNER_PRODUCT
  blobs_lr: 1
  blobs_lr: 2
  weight_decay: 1
  weight_decay: 0
  inner_product_param {
    num_output: 1024
    weight_filler {
      type: "xavier"
    }
    bias_filler {
      type: "constant"
      value: 0.1
    }
  }
  param: "dec_fc1_w"
  param: "dec_fc1_b"
}
layers {
  bottom: "ep_inner_product_165"
  top: "ep_inner_product_165"
  name: "relu_175"
  type: RELU
}
layers {
  bottom: "ep_inner_product_165"
  top: "ep_inner_product_166"
  name: "inner_product_206"
  type: INNER_PRODUCT
  blobs_lr: 1
  blobs_lr: 2
  weight_decay: 1
  weight_decay: 0
  inner_product_param {
    num_output: 1024
    weight_filler {
      type: "xavier"
    }
    bias_filler {
      type: "constant"
      value: 0.1
    }
  }
  param: "dec_fc2_w"
  param: "dec_fc2_b"
}
layers {
  bottom: "ep_inner_product_166"
  top: "ep_relu_167"
  name: "relu_237"
  type: RELU
}
layers {
  bottom: "ep_relu_167"
  top: "ep_split_168"
  top: "ep_split_176"
  name: "split_268"
  type: SPLIT
}
layers {
  bottom: "ep_split_168"
  top: "ep_inner_product_169"
  name: "inner_product_299"
  type: INNER_PRODUCT
  blobs_lr: 1
  blobs_lr: 2
  weight_decay: 1
  weight_decay: 0
  inner_product_param {
    num_output: 16384
    weight_filler {
      type: "xavier"
    }
    bias_filler {
      type: "constant"
      value: 0.1
    }
  }
  param: "dec_img_fc1_w"
  param: "dec_img_fc1_b"
}
layers {
  bottom: "ep_inner_product_169"
  top: "ep_inner_product_169"
  name: "relu_330"
  type: RELU
}
layers {
  bottom: "ep_inner_product_169"
  top: "ep_folding_170"
  name: "folding_361"
  type: FOLDING
  folding_param {
    channels_folded: 256
    height_folded: 8
    width_folded: 8
  }
}
layers {
  bottom: "ep_folding_170"
  top: "ep_upsample_171"
  name: "upsample_392"
  type: UPSAMPLING
  upsampling_param {
    kernel_size: 2
  }
}
layers {
  bottom: "ep_upsample_171"
  top: "ep_conv_5x5_1_172"
  name: "conv_5x5_1_423"
  type: CONVOLUTION
  blobs_lr: 1
  blobs_lr: 2
  weight_decay: 1
  weight_decay: 0
  convolution_param {
    num_output: 128
    pad: 2
    kernel_size: 5
    stride: 1
    weight_filler {
      type: "xavier"
    }
    bias_filler {
      type: "constant"
      value: 0.1
    }
  }
  param: "dec_img_conv1_w"
  param: "dec_img_conv1_b"
}
layers {
  bottom: "ep_conv_5x5_1_172"
  top: "ep_conv_5x5_1_172"
  name: "relu_454"
  type: RELU
}
layers {
  bottom: "ep_conv_5x5_1_172"
  top: "ep_upsample_173"
  name: "upsample_485"
  type: UPSAMPLING
  upsampling_param {
    kernel_size: 2
  }
}
layers {
  bottom: "ep_upsample_173"
  top: "ep_conv_5x5_1_174"
  name: "conv_5x5_1_516"
  type: CONVOLUTION
  blobs_lr: 1
  blobs_lr: 2
  weight_decay: 1
  weight_decay: 0
  convolution_param {
    num_output: 64
    pad: 2
    kernel_size: 5
    stride: 1
    weight_filler {
      type: "xavier"
    }
    bias_filler {
      type: "constant"
      value: 0.1
    }
  }
  param: "dec_img_conv2_w"
  param: "dec_img_conv2_b"
}
layers {
  bottom: "ep_conv_5x5_1_174"
  top: "ep_conv_5x5_1_174"
  name: "relu_547"
  type: RELU
}
layers {
  bottom: "ep_conv_5x5_1_174"
  top: "ep_upsample_175"
  name: "upsample_578"
  type: UPSAMPLING
  upsampling_param {
    kernel_size: 2
  }
}
layers {
  bottom: "ep_upsample_175"
  top: "ep_t6_conv_5x5_1_790"
  name: "t6_conv_5x5_1_609"
  type: CONVOLUTION
  blobs_lr: 1
  blobs_lr: 2
  weight_decay: 1
  weight_decay: 0
  convolution_param {
    num_output: 3
    pad: 2
    kernel_size: 5
    stride: 1
    weight_filler {
      type: "xavier"
    }
    bias_filler {
      type: "constant"
      value: 0.1
    }
  }
  param: "dec_img_conv3_w"
  param: "dec_img_conv3_b"
}
layers {
  bottom: "ep_split_176"
  top: "ep_inner_product_177"
  name: "inner_product_640"
  type: INNER_PRODUCT
  blobs_lr: 1
  blobs_lr: 2
  weight_decay: 1
  weight_decay: 0
  inner_product_param {
    num_output: 8192
    weight_filler {
      type: "xavier"
    }
    bias_filler {
      type: "constant"
      value: 0.1
    }
  }
  param: "dec_mask_fc1_w"
  param: "dec_mask_fc1_b"
}
layers {
  bottom: "ep_inner_product_177"
  top: "ep_inner_product_177"
  name: "relu_671"
  type: RELU
}
layers {
  bottom: "ep_inner_product_177"
  top: "ep_folding_178"
  name: "folding_702"
  type: FOLDING
  folding_param {
    channels_folded: 128
    height_folded: 8
    width_folded: 8
  }
}
layers {
  bottom: "ep_folding_178"
  top: "ep_upsample_179"
  name: "upsample_733"
  type: UPSAMPLING
  upsampling_param {
    kernel_size: 2
  }
}
layers {
  bottom: "ep_upsample_179"
  top: "ep_conv_5x5_1_180"
  name: "conv_5x5_1_764"
  type: CONVOLUTION
  blobs_lr: 1
  blobs_lr: 2
  weight_decay: 1
  weight_decay: 0
  convolution_param {
    num_output: 64
    pad: 2
    kernel_size: 5
    stride: 1
    weight_filler {
      type: "xavier"
    }
    bias_filler {
      type: "constant"
      value: 0.1
    }
  }
  param: "dec_mask_conv1_w"
  param: "dec_mask_conv1_b"
}
layers {
  bottom: "ep_conv_5x5_1_180"
  top: "ep_conv_5x5_1_180"
  name: "relu_795"
  type: RELU
}
layers {
  bottom: "ep_conv_5x5_1_180"
  top: "ep_upsample_181"
  name: "upsample_826"
  type: UPSAMPLING
  upsampling_param {
    kernel_size: 2
  }
}
layers {
  bottom: "ep_upsample_181"
  top: "ep_conv_5x5_1_182"
  name: "conv_5x5_1_857"
  type: CONVOLUTION
  blobs_lr: 1
  blobs_lr: 2
  weight_decay: 1
  weight_decay: 0
  convolution_param {
    num_output: 32
    pad: 2
    kernel_size: 5
    stride: 1
    weight_filler {
      type: "xavier"
    }
    bias_filler {
      type: "constant"
      value: 0.1
    }
  }
  param: "dec_mask_conv2_w"
  param: "dec_mask_conv2_b"
}
layers {
  bottom: "ep_conv_5x5_1_182"
  top: "ep_conv_5x5_1_182"
  name: "relu_888"
  type: RELU
}
layers {
  bottom: "ep_conv_5x5_1_182"
  top: "ep_upsample_183"
  name: "upsample_919"
  type: UPSAMPLING
  upsampling_param {
    kernel_size: 2
  }
}
layers {
  bottom: "ep_upsample_183"
  top: "ep_t6_conv_5x5_1_821"
  name: "t6_conv_5x5_1_950"
  type: CONVOLUTION
  blobs_lr: 1
  blobs_lr: 2
  weight_decay: 1
  weight_decay: 0
  convolution_param {
    num_output: 1
    pad: 2
    kernel_size: 5
    stride: 1
    weight_filler {
      type: "xavier"
    }
    bias_filler {
      type: "constant"
      value: 0.1
    }
  }
  param: "dec_mask_conv3_w"
  param: "dec_mask_conv3_b"
}
layers {
  bottom: "ep_split_184"
  bottom: "rotations7"
  top: "ep_tensor_product_185"
  name: "tensor_product_21"
  type: TENSOR_PRODUCT
  blobs_lr: 1
  blobs_lr: 2
  weight_decay: 1
  weight_decay: 0
  inner_product_param {
    num_output: 512
    weight_filler {
      type: "xavier"
    }
    bias_filler {
      type: "constant"
      value: 0.1
    }
  }
  param: "tensor_view_w"
  param: "tensor_view_b"
}
layers {
  bottom: "ep_tensor_product_185"
  top: "ep_relu_186"
  name: "relu_52"
  type: RELU
}
layers {
  bottom: "ep_relu_186"
  top: "ep_split_188"
  top: "ep_split_209"
  name: "split_83"
  type: SPLIT
}
layers {
  bottom: "ep_split_187"
  bottom: "ep_split_188"
  top: "ep_concat_189"
  name: "concat_114"
  type: CONCAT
  concat_param {
    concat_dim: 1
  }
}
layers {
  bottom: "ep_concat_189"
  top: "ep_inner_product_190"
  name: "inner_product_145"
  type: INNER_PRODUCT
  blobs_lr: 1
  blobs_lr: 2
  weight_decay: 1
  weight_decay: 0
  inner_product_param {
    num_output: 1024
    weight_filler {
      type: "xavier"
    }
    bias_filler {
      type: "constant"
      value: 0.1
    }
  }
  param: "dec_fc1_w"
  param: "dec_fc1_b"
}
layers {
  bottom: "ep_inner_product_190"
  top: "ep_inner_product_190"
  name: "relu_176"
  type: RELU
}
layers {
  bottom: "ep_inner_product_190"
  top: "ep_inner_product_191"
  name: "inner_product_207"
  type: INNER_PRODUCT
  blobs_lr: 1
  blobs_lr: 2
  weight_decay: 1
  weight_decay: 0
  inner_product_param {
    num_output: 1024
    weight_filler {
      type: "xavier"
    }
    bias_filler {
      type: "constant"
      value: 0.1
    }
  }
  param: "dec_fc2_w"
  param: "dec_fc2_b"
}
layers {
  bottom: "ep_inner_product_191"
  top: "ep_relu_192"
  name: "relu_238"
  type: RELU
}
layers {
  bottom: "ep_relu_192"
  top: "ep_split_193"
  top: "ep_split_201"
  name: "split_269"
  type: SPLIT
}
layers {
  bottom: "ep_split_193"
  top: "ep_inner_product_194"
  name: "inner_product_300"
  type: INNER_PRODUCT
  blobs_lr: 1
  blobs_lr: 2
  weight_decay: 1
  weight_decay: 0
  inner_product_param {
    num_output: 16384
    weight_filler {
      type: "xavier"
    }
    bias_filler {
      type: "constant"
      value: 0.1
    }
  }
  param: "dec_img_fc1_w"
  param: "dec_img_fc1_b"
}
layers {
  bottom: "ep_inner_product_194"
  top: "ep_inner_product_194"
  name: "relu_331"
  type: RELU
}
layers {
  bottom: "ep_inner_product_194"
  top: "ep_folding_195"
  name: "folding_362"
  type: FOLDING
  folding_param {
    channels_folded: 256
    height_folded: 8
    width_folded: 8
  }
}
layers {
  bottom: "ep_folding_195"
  top: "ep_upsample_196"
  name: "upsample_393"
  type: UPSAMPLING
  upsampling_param {
    kernel_size: 2
  }
}
layers {
  bottom: "ep_upsample_196"
  top: "ep_conv_5x5_1_197"
  name: "conv_5x5_1_424"
  type: CONVOLUTION
  blobs_lr: 1
  blobs_lr: 2
  weight_decay: 1
  weight_decay: 0
  convolution_param {
    num_output: 128
    pad: 2
    kernel_size: 5
    stride: 1
    weight_filler {
      type: "xavier"
    }
    bias_filler {
      type: "constant"
      value: 0.1
    }
  }
  param: "dec_img_conv1_w"
  param: "dec_img_conv1_b"
}
layers {
  bottom: "ep_conv_5x5_1_197"
  top: "ep_conv_5x5_1_197"
  name: "relu_455"
  type: RELU
}
layers {
  bottom: "ep_conv_5x5_1_197"
  top: "ep_upsample_198"
  name: "upsample_486"
  type: UPSAMPLING
  upsampling_param {
    kernel_size: 2
  }
}
layers {
  bottom: "ep_upsample_198"
  top: "ep_conv_5x5_1_199"
  name: "conv_5x5_1_517"
  type: CONVOLUTION
  blobs_lr: 1
  blobs_lr: 2
  weight_decay: 1
  weight_decay: 0
  convolution_param {
    num_output: 64
    pad: 2
    kernel_size: 5
    stride: 1
    weight_filler {
      type: "xavier"
    }
    bias_filler {
      type: "constant"
      value: 0.1
    }
  }
  param: "dec_img_conv2_w"
  param: "dec_img_conv2_b"
}
layers {
  bottom: "ep_conv_5x5_1_199"
  top: "ep_conv_5x5_1_199"
  name: "relu_548"
  type: RELU
}
layers {
  bottom: "ep_conv_5x5_1_199"
  top: "ep_upsample_200"
  name: "upsample_579"
  type: UPSAMPLING
  upsampling_param {
    kernel_size: 2
  }
}
layers {
  bottom: "ep_upsample_200"
  top: "ep_t7_conv_5x5_1_791"
  name: "t7_conv_5x5_1_610"
  type: CONVOLUTION
  blobs_lr: 1
  blobs_lr: 2
  weight_decay: 1
  weight_decay: 0
  convolution_param {
    num_output: 3
    pad: 2
    kernel_size: 5
    stride: 1
    weight_filler {
      type: "xavier"
    }
    bias_filler {
      type: "constant"
      value: 0.1
    }
  }
  param: "dec_img_conv3_w"
  param: "dec_img_conv3_b"
}
layers {
  bottom: "ep_split_201"
  top: "ep_inner_product_202"
  name: "inner_product_641"
  type: INNER_PRODUCT
  blobs_lr: 1
  blobs_lr: 2
  weight_decay: 1
  weight_decay: 0
  inner_product_param {
    num_output: 8192
    weight_filler {
      type: "xavier"
    }
    bias_filler {
      type: "constant"
      value: 0.1
    }
  }
  param: "dec_mask_fc1_w"
  param: "dec_mask_fc1_b"
}
layers {
  bottom: "ep_inner_product_202"
  top: "ep_inner_product_202"
  name: "relu_672"
  type: RELU
}
layers {
  bottom: "ep_inner_product_202"
  top: "ep_folding_203"
  name: "folding_703"
  type: FOLDING
  folding_param {
    channels_folded: 128
    height_folded: 8
    width_folded: 8
  }
}
layers {
  bottom: "ep_folding_203"
  top: "ep_upsample_204"
  name: "upsample_734"
  type: UPSAMPLING
  upsampling_param {
    kernel_size: 2
  }
}
layers {
  bottom: "ep_upsample_204"
  top: "ep_conv_5x5_1_205"
  name: "conv_5x5_1_765"
  type: CONVOLUTION
  blobs_lr: 1
  blobs_lr: 2
  weight_decay: 1
  weight_decay: 0
  convolution_param {
    num_output: 64
    pad: 2
    kernel_size: 5
    stride: 1
    weight_filler {
      type: "xavier"
    }
    bias_filler {
      type: "constant"
      value: 0.1
    }
  }
  param: "dec_mask_conv1_w"
  param: "dec_mask_conv1_b"
}
layers {
  bottom: "ep_conv_5x5_1_205"
  top: "ep_conv_5x5_1_205"
  name: "relu_796"
  type: RELU
}
layers {
  bottom: "ep_conv_5x5_1_205"
  top: "ep_upsample_206"
  name: "upsample_827"
  type: UPSAMPLING
  upsampling_param {
    kernel_size: 2
  }
}
layers {
  bottom: "ep_upsample_206"
  top: "ep_conv_5x5_1_207"
  name: "conv_5x5_1_858"
  type: CONVOLUTION
  blobs_lr: 1
  blobs_lr: 2
  weight_decay: 1
  weight_decay: 0
  convolution_param {
    num_output: 32
    pad: 2
    kernel_size: 5
    stride: 1
    weight_filler {
      type: "xavier"
    }
    bias_filler {
      type: "constant"
      value: 0.1
    }
  }
  param: "dec_mask_conv2_w"
  param: "dec_mask_conv2_b"
}
layers {
  bottom: "ep_conv_5x5_1_207"
  top: "ep_conv_5x5_1_207"
  name: "relu_889"
  type: RELU
}
layers {
  bottom: "ep_conv_5x5_1_207"
  top: "ep_upsample_208"
  name: "upsample_920"
  type: UPSAMPLING
  upsampling_param {
    kernel_size: 2
  }
}
layers {
  bottom: "ep_upsample_208"
  top: "ep_t7_conv_5x5_1_822"
  name: "t7_conv_5x5_1_951"
  type: CONVOLUTION
  blobs_lr: 1
  blobs_lr: 2
  weight_decay: 1
  weight_decay: 0
  convolution_param {
    num_output: 1
    pad: 2
    kernel_size: 5
    stride: 1
    weight_filler {
      type: "xavier"
    }
    bias_filler {
      type: "constant"
      value: 0.1
    }
  }
  param: "dec_mask_conv3_w"
  param: "dec_mask_conv3_b"
}
layers {
  bottom: "ep_split_209"
  bottom: "rotations8"
  top: "ep_tensor_product_210"
  name: "tensor_product_22"
  type: TENSOR_PRODUCT
  blobs_lr: 1
  blobs_lr: 2
  weight_decay: 1
  weight_decay: 0
  inner_product_param {
    num_output: 512
    weight_filler {
      type: "xavier"
    }
    bias_filler {
      type: "constant"
      value: 0.1
    }
  }
  param: "tensor_view_w"
  param: "tensor_view_b"
}
layers {
  bottom: "ep_tensor_product_210"
  top: "ep_relu_211"
  name: "relu_53"
  type: RELU
}
layers {
  bottom: "ep_relu_211"
  top: "ep_split_213"
  top: "ep_split_234"
  name: "split_84"
  type: SPLIT
}
layers {
  bottom: "ep_split_212"
  bottom: "ep_split_213"
  top: "ep_concat_214"
  name: "concat_115"
  type: CONCAT
  concat_param {
    concat_dim: 1
  }
}
layers {
  bottom: "ep_concat_214"
  top: "ep_inner_product_215"
  name: "inner_product_146"
  type: INNER_PRODUCT
  blobs_lr: 1
  blobs_lr: 2
  weight_decay: 1
  weight_decay: 0
  inner_product_param {
    num_output: 1024
    weight_filler {
      type: "xavier"
    }
    bias_filler {
      type: "constant"
      value: 0.1
    }
  }
  param: "dec_fc1_w"
  param: "dec_fc1_b"
}
layers {
  bottom: "ep_inner_product_215"
  top: "ep_inner_product_215"
  name: "relu_177"
  type: RELU
}
layers {
  bottom: "ep_inner_product_215"
  top: "ep_inner_product_216"
  name: "inner_product_208"
  type: INNER_PRODUCT
  blobs_lr: 1
  blobs_lr: 2
  weight_decay: 1
  weight_decay: 0
  inner_product_param {
    num_output: 1024
    weight_filler {
      type: "xavier"
    }
    bias_filler {
      type: "constant"
      value: 0.1
    }
  }
  param: "dec_fc2_w"
  param: "dec_fc2_b"
}
layers {
  bottom: "ep_inner_product_216"
  top: "ep_relu_217"
  name: "relu_239"
  type: RELU
}
layers {
  bottom: "ep_relu_217"
  top: "ep_split_218"
  top: "ep_split_226"
  name: "split_270"
  type: SPLIT
}
layers {
  bottom: "ep_split_218"
  top: "ep_inner_product_219"
  name: "inner_product_301"
  type: INNER_PRODUCT
  blobs_lr: 1
  blobs_lr: 2
  weight_decay: 1
  weight_decay: 0
  inner_product_param {
    num_output: 16384
    weight_filler {
      type: "xavier"
    }
    bias_filler {
      type: "constant"
      value: 0.1
    }
  }
  param: "dec_img_fc1_w"
  param: "dec_img_fc1_b"
}
layers {
  bottom: "ep_inner_product_219"
  top: "ep_inner_product_219"
  name: "relu_332"
  type: RELU
}
layers {
  bottom: "ep_inner_product_219"
  top: "ep_folding_220"
  name: "folding_363"
  type: FOLDING
  folding_param {
    channels_folded: 256
    height_folded: 8
    width_folded: 8
  }
}
layers {
  bottom: "ep_folding_220"
  top: "ep_upsample_221"
  name: "upsample_394"
  type: UPSAMPLING
  upsampling_param {
    kernel_size: 2
  }
}
layers {
  bottom: "ep_upsample_221"
  top: "ep_conv_5x5_1_222"
  name: "conv_5x5_1_425"
  type: CONVOLUTION
  blobs_lr: 1
  blobs_lr: 2
  weight_decay: 1
  weight_decay: 0
  convolution_param {
    num_output: 128
    pad: 2
    kernel_size: 5
    stride: 1
    weight_filler {
      type: "xavier"
    }
    bias_filler {
      type: "constant"
      value: 0.1
    }
  }
  param: "dec_img_conv1_w"
  param: "dec_img_conv1_b"
}
layers {
  bottom: "ep_conv_5x5_1_222"
  top: "ep_conv_5x5_1_222"
  name: "relu_456"
  type: RELU
}
layers {
  bottom: "ep_conv_5x5_1_222"
  top: "ep_upsample_223"
  name: "upsample_487"
  type: UPSAMPLING
  upsampling_param {
    kernel_size: 2
  }
}
layers {
  bottom: "ep_upsample_223"
  top: "ep_conv_5x5_1_224"
  name: "conv_5x5_1_518"
  type: CONVOLUTION
  blobs_lr: 1
  blobs_lr: 2
  weight_decay: 1
  weight_decay: 0
  convolution_param {
    num_output: 64
    pad: 2
    kernel_size: 5
    stride: 1
    weight_filler {
      type: "xavier"
    }
    bias_filler {
      type: "constant"
      value: 0.1
    }
  }
  param: "dec_img_conv2_w"
  param: "dec_img_conv2_b"
}
layers {
  bottom: "ep_conv_5x5_1_224"
  top: "ep_conv_5x5_1_224"
  name: "relu_549"
  type: RELU
}
layers {
  bottom: "ep_conv_5x5_1_224"
  top: "ep_upsample_225"
  name: "upsample_580"
  type: UPSAMPLING
  upsampling_param {
    kernel_size: 2
  }
}
layers {
  bottom: "ep_upsample_225"
  top: "ep_t8_conv_5x5_1_792"
  name: "t8_conv_5x5_1_611"
  type: CONVOLUTION
  blobs_lr: 1
  blobs_lr: 2
  weight_decay: 1
  weight_decay: 0
  convolution_param {
    num_output: 3
    pad: 2
    kernel_size: 5
    stride: 1
    weight_filler {
      type: "xavier"
    }
    bias_filler {
      type: "constant"
      value: 0.1
    }
  }
  param: "dec_img_conv3_w"
  param: "dec_img_conv3_b"
}
layers {
  bottom: "ep_split_226"
  top: "ep_inner_product_227"
  name: "inner_product_642"
  type: INNER_PRODUCT
  blobs_lr: 1
  blobs_lr: 2
  weight_decay: 1
  weight_decay: 0
  inner_product_param {
    num_output: 8192
    weight_filler {
      type: "xavier"
    }
    bias_filler {
      type: "constant"
      value: 0.1
    }
  }
  param: "dec_mask_fc1_w"
  param: "dec_mask_fc1_b"
}
layers {
  bottom: "ep_inner_product_227"
  top: "ep_inner_product_227"
  name: "relu_673"
  type: RELU
}
layers {
  bottom: "ep_inner_product_227"
  top: "ep_folding_228"
  name: "folding_704"
  type: FOLDING
  folding_param {
    channels_folded: 128
    height_folded: 8
    width_folded: 8
  }
}
layers {
  bottom: "ep_folding_228"
  top: "ep_upsample_229"
  name: "upsample_735"
  type: UPSAMPLING
  upsampling_param {
    kernel_size: 2
  }
}
layers {
  bottom: "ep_upsample_229"
  top: "ep_conv_5x5_1_230"
  name: "conv_5x5_1_766"
  type: CONVOLUTION
  blobs_lr: 1
  blobs_lr: 2
  weight_decay: 1
  weight_decay: 0
  convolution_param {
    num_output: 64
    pad: 2
    kernel_size: 5
    stride: 1
    weight_filler {
      type: "xavier"
    }
    bias_filler {
      type: "constant"
      value: 0.1
    }
  }
  param: "dec_mask_conv1_w"
  param: "dec_mask_conv1_b"
}
layers {
  bottom: "ep_conv_5x5_1_230"
  top: "ep_conv_5x5_1_230"
  name: "relu_797"
  type: RELU
}
layers {
  bottom: "ep_conv_5x5_1_230"
  top: "ep_upsample_231"
  name: "upsample_828"
  type: UPSAMPLING
  upsampling_param {
    kernel_size: 2
  }
}
layers {
  bottom: "ep_upsample_231"
  top: "ep_conv_5x5_1_232"
  name: "conv_5x5_1_859"
  type: CONVOLUTION
  blobs_lr: 1
  blobs_lr: 2
  weight_decay: 1
  weight_decay: 0
  convolution_param {
    num_output: 32
    pad: 2
    kernel_size: 5
    stride: 1
    weight_filler {
      type: "xavier"
    }
    bias_filler {
      type: "constant"
      value: 0.1
    }
  }
  param: "dec_mask_conv2_w"
  param: "dec_mask_conv2_b"
}
layers {
  bottom: "ep_conv_5x5_1_232"
  top: "ep_conv_5x5_1_232"
  name: "relu_890"
  type: RELU
}
layers {
  bottom: "ep_conv_5x5_1_232"
  top: "ep_upsample_233"
  name: "upsample_921"
  type: UPSAMPLING
  upsampling_param {
    kernel_size: 2
  }
}
layers {
  bottom: "ep_upsample_233"
  top: "ep_t8_conv_5x5_1_823"
  name: "t8_conv_5x5_1_952"
  type: CONVOLUTION
  blobs_lr: 1
  blobs_lr: 2
  weight_decay: 1
  weight_decay: 0
  convolution_param {
    num_output: 1
    pad: 2
    kernel_size: 5
    stride: 1
    weight_filler {
      type: "xavier"
    }
    bias_filler {
      type: "constant"
      value: 0.1
    }
  }
  param: "dec_mask_conv3_w"
  param: "dec_mask_conv3_b"
}
layers {
  bottom: "ep_split_234"
  bottom: "rotations9"
  top: "ep_tensor_product_235"
  name: "tensor_product_23"
  type: TENSOR_PRODUCT
  blobs_lr: 1
  blobs_lr: 2
  weight_decay: 1
  weight_decay: 0
  inner_product_param {
    num_output: 512
    weight_filler {
      type: "xavier"
    }
    bias_filler {
      type: "constant"
      value: 0.1
    }
  }
  param: "tensor_view_w"
  param: "tensor_view_b"
}
layers {
  bottom: "ep_tensor_product_235"
  top: "ep_relu_236"
  name: "relu_54"
  type: RELU
}
layers {
  bottom: "ep_relu_236"
  top: "ep_split_238"
  top: "ep_split_259"
  name: "split_85"
  type: SPLIT
}
layers {
  bottom: "ep_split_237"
  bottom: "ep_split_238"
  top: "ep_concat_239"
  name: "concat_116"
  type: CONCAT
  concat_param {
    concat_dim: 1
  }
}
layers {
  bottom: "ep_concat_239"
  top: "ep_inner_product_240"
  name: "inner_product_147"
  type: INNER_PRODUCT
  blobs_lr: 1
  blobs_lr: 2
  weight_decay: 1
  weight_decay: 0
  inner_product_param {
    num_output: 1024
    weight_filler {
      type: "xavier"
    }
    bias_filler {
      type: "constant"
      value: 0.1
    }
  }
  param: "dec_fc1_w"
  param: "dec_fc1_b"
}
layers {
  bottom: "ep_inner_product_240"
  top: "ep_inner_product_240"
  name: "relu_178"
  type: RELU
}
layers {
  bottom: "ep_inner_product_240"
  top: "ep_inner_product_241"
  name: "inner_product_209"
  type: INNER_PRODUCT
  blobs_lr: 1
  blobs_lr: 2
  weight_decay: 1
  weight_decay: 0
  inner_product_param {
    num_output: 1024
    weight_filler {
      type: "xavier"
    }
    bias_filler {
      type: "constant"
      value: 0.1
    }
  }
  param: "dec_fc2_w"
  param: "dec_fc2_b"
}
layers {
  bottom: "ep_inner_product_241"
  top: "ep_relu_242"
  name: "relu_240"
  type: RELU
}
layers {
  bottom: "ep_relu_242"
  top: "ep_split_243"
  top: "ep_split_251"
  name: "split_271"
  type: SPLIT
}
layers {
  bottom: "ep_split_243"
  top: "ep_inner_product_244"
  name: "inner_product_302"
  type: INNER_PRODUCT
  blobs_lr: 1
  blobs_lr: 2
  weight_decay: 1
  weight_decay: 0
  inner_product_param {
    num_output: 16384
    weight_filler {
      type: "xavier"
    }
    bias_filler {
      type: "constant"
      value: 0.1
    }
  }
  param: "dec_img_fc1_w"
  param: "dec_img_fc1_b"
}
layers {
  bottom: "ep_inner_product_244"
  top: "ep_inner_product_244"
  name: "relu_333"
  type: RELU
}
layers {
  bottom: "ep_inner_product_244"
  top: "ep_folding_245"
  name: "folding_364"
  type: FOLDING
  folding_param {
    channels_folded: 256
    height_folded: 8
    width_folded: 8
  }
}
layers {
  bottom: "ep_folding_245"
  top: "ep_upsample_246"
  name: "upsample_395"
  type: UPSAMPLING
  upsampling_param {
    kernel_size: 2
  }
}
layers {
  bottom: "ep_upsample_246"
  top: "ep_conv_5x5_1_247"
  name: "conv_5x5_1_426"
  type: CONVOLUTION
  blobs_lr: 1
  blobs_lr: 2
  weight_decay: 1
  weight_decay: 0
  convolution_param {
    num_output: 128
    pad: 2
    kernel_size: 5
    stride: 1
    weight_filler {
      type: "xavier"
    }
    bias_filler {
      type: "constant"
      value: 0.1
    }
  }
  param: "dec_img_conv1_w"
  param: "dec_img_conv1_b"
}
layers {
  bottom: "ep_conv_5x5_1_247"
  top: "ep_conv_5x5_1_247"
  name: "relu_457"
  type: RELU
}
layers {
  bottom: "ep_conv_5x5_1_247"
  top: "ep_upsample_248"
  name: "upsample_488"
  type: UPSAMPLING
  upsampling_param {
    kernel_size: 2
  }
}
layers {
  bottom: "ep_upsample_248"
  top: "ep_conv_5x5_1_249"
  name: "conv_5x5_1_519"
  type: CONVOLUTION
  blobs_lr: 1
  blobs_lr: 2
  weight_decay: 1
  weight_decay: 0
  convolution_param {
    num_output: 64
    pad: 2
    kernel_size: 5
    stride: 1
    weight_filler {
      type: "xavier"
    }
    bias_filler {
      type: "constant"
      value: 0.1
    }
  }
  param: "dec_img_conv2_w"
  param: "dec_img_conv2_b"
}
layers {
  bottom: "ep_conv_5x5_1_249"
  top: "ep_conv_5x5_1_249"
  name: "relu_550"
  type: RELU
}
layers {
  bottom: "ep_conv_5x5_1_249"
  top: "ep_upsample_250"
  name: "upsample_581"
  type: UPSAMPLING
  upsampling_param {
    kernel_size: 2
  }
}
layers {
  bottom: "ep_upsample_250"
  top: "ep_t9_conv_5x5_1_793"
  name: "t9_conv_5x5_1_612"
  type: CONVOLUTION
  blobs_lr: 1
  blobs_lr: 2
  weight_decay: 1
  weight_decay: 0
  convolution_param {
    num_output: 3
    pad: 2
    kernel_size: 5
    stride: 1
    weight_filler {
      type: "xavier"
    }
    bias_filler {
      type: "constant"
      value: 0.1
    }
  }
  param: "dec_img_conv3_w"
  param: "dec_img_conv3_b"
}
layers {
  bottom: "ep_split_251"
  top: "ep_inner_product_252"
  name: "inner_product_643"
  type: INNER_PRODUCT
  blobs_lr: 1
  blobs_lr: 2
  weight_decay: 1
  weight_decay: 0
  inner_product_param {
    num_output: 8192
    weight_filler {
      type: "xavier"
    }
    bias_filler {
      type: "constant"
      value: 0.1
    }
  }
  param: "dec_mask_fc1_w"
  param: "dec_mask_fc1_b"
}
layers {
  bottom: "ep_inner_product_252"
  top: "ep_inner_product_252"
  name: "relu_674"
  type: RELU
}
layers {
  bottom: "ep_inner_product_252"
  top: "ep_folding_253"
  name: "folding_705"
  type: FOLDING
  folding_param {
    channels_folded: 128
    height_folded: 8
    width_folded: 8
  }
}
layers {
  bottom: "ep_folding_253"
  top: "ep_upsample_254"
  name: "upsample_736"
  type: UPSAMPLING
  upsampling_param {
    kernel_size: 2
  }
}
layers {
  bottom: "ep_upsample_254"
  top: "ep_conv_5x5_1_255"
  name: "conv_5x5_1_767"
  type: CONVOLUTION
  blobs_lr: 1
  blobs_lr: 2
  weight_decay: 1
  weight_decay: 0
  convolution_param {
    num_output: 64
    pad: 2
    kernel_size: 5
    stride: 1
    weight_filler {
      type: "xavier"
    }
    bias_filler {
      type: "constant"
      value: 0.1
    }
  }
  param: "dec_mask_conv1_w"
  param: "dec_mask_conv1_b"
}
layers {
  bottom: "ep_conv_5x5_1_255"
  top: "ep_conv_5x5_1_255"
  name: "relu_798"
  type: RELU
}
layers {
  bottom: "ep_conv_5x5_1_255"
  top: "ep_upsample_256"
  name: "upsample_829"
  type: UPSAMPLING
  upsampling_param {
    kernel_size: 2
  }
}
layers {
  bottom: "ep_upsample_256"
  top: "ep_conv_5x5_1_257"
  name: "conv_5x5_1_860"
  type: CONVOLUTION
  blobs_lr: 1
  blobs_lr: 2
  weight_decay: 1
  weight_decay: 0
  convolution_param {
    num_output: 32
    pad: 2
    kernel_size: 5
    stride: 1
    weight_filler {
      type: "xavier"
    }
    bias_filler {
      type: "constant"
      value: 0.1
    }
  }
  param: "dec_mask_conv2_w"
  param: "dec_mask_conv2_b"
}
layers {
  bottom: "ep_conv_5x5_1_257"
  top: "ep_conv_5x5_1_257"
  name: "relu_891"
  type: RELU
}
layers {
  bottom: "ep_conv_5x5_1_257"
  top: "ep_upsample_258"
  name: "upsample_922"
  type: UPSAMPLING
  upsampling_param {
    kernel_size: 2
  }
}
layers {
  bottom: "ep_upsample_258"
  top: "ep_t9_conv_5x5_1_824"
  name: "t9_conv_5x5_1_953"
  type: CONVOLUTION
  blobs_lr: 1
  blobs_lr: 2
  weight_decay: 1
  weight_decay: 0
  convolution_param {
    num_output: 1
    pad: 2
    kernel_size: 5
    stride: 1
    weight_filler {
      type: "xavier"
    }
    bias_filler {
      type: "constant"
      value: 0.1
    }
  }
  param: "dec_mask_conv3_w"
  param: "dec_mask_conv3_b"
}
layers {
  bottom: "ep_split_259"
  bottom: "rotations10"
  top: "ep_tensor_product_260"
  name: "tensor_product_24"
  type: TENSOR_PRODUCT
  blobs_lr: 1
  blobs_lr: 2
  weight_decay: 1
  weight_decay: 0
  inner_product_param {
    num_output: 512
    weight_filler {
      type: "xavier"
    }
    bias_filler {
      type: "constant"
      value: 0.1
    }
  }
  param: "tensor_view_w"
  param: "tensor_view_b"
}
layers {
  bottom: "ep_tensor_product_260"
  top: "ep_relu_261"
  name: "relu_55"
  type: RELU
}
layers {
  bottom: "ep_relu_261"
  top: "ep_split_263"
  top: "ep_split_284"
  name: "split_86"
  type: SPLIT
}
layers {
  bottom: "ep_split_262"
  bottom: "ep_split_263"
  top: "ep_concat_264"
  name: "concat_117"
  type: CONCAT
  concat_param {
    concat_dim: 1
  }
}
layers {
  bottom: "ep_concat_264"
  top: "ep_inner_product_265"
  name: "inner_product_148"
  type: INNER_PRODUCT
  blobs_lr: 1
  blobs_lr: 2
  weight_decay: 1
  weight_decay: 0
  inner_product_param {
    num_output: 1024
    weight_filler {
      type: "xavier"
    }
    bias_filler {
      type: "constant"
      value: 0.1
    }
  }
  param: "dec_fc1_w"
  param: "dec_fc1_b"
}
layers {
  bottom: "ep_inner_product_265"
  top: "ep_inner_product_265"
  name: "relu_179"
  type: RELU
}
layers {
  bottom: "ep_inner_product_265"
  top: "ep_inner_product_266"
  name: "inner_product_210"
  type: INNER_PRODUCT
  blobs_lr: 1
  blobs_lr: 2
  weight_decay: 1
  weight_decay: 0
  inner_product_param {
    num_output: 1024
    weight_filler {
      type: "xavier"
    }
    bias_filler {
      type: "constant"
      value: 0.1
    }
  }
  param: "dec_fc2_w"
  param: "dec_fc2_b"
}
layers {
  bottom: "ep_inner_product_266"
  top: "ep_relu_267"
  name: "relu_241"
  type: RELU
}
layers {
  bottom: "ep_relu_267"
  top: "ep_split_268"
  top: "ep_split_276"
  name: "split_272"
  type: SPLIT
}
layers {
  bottom: "ep_split_268"
  top: "ep_inner_product_269"
  name: "inner_product_303"
  type: INNER_PRODUCT
  blobs_lr: 1
  blobs_lr: 2
  weight_decay: 1
  weight_decay: 0
  inner_product_param {
    num_output: 16384
    weight_filler {
      type: "xavier"
    }
    bias_filler {
      type: "constant"
      value: 0.1
    }
  }
  param: "dec_img_fc1_w"
  param: "dec_img_fc1_b"
}
layers {
  bottom: "ep_inner_product_269"
  top: "ep_inner_product_269"
  name: "relu_334"
  type: RELU
}
layers {
  bottom: "ep_inner_product_269"
  top: "ep_folding_270"
  name: "folding_365"
  type: FOLDING
  folding_param {
    channels_folded: 256
    height_folded: 8
    width_folded: 8
  }
}
layers {
  bottom: "ep_folding_270"
  top: "ep_upsample_271"
  name: "upsample_396"
  type: UPSAMPLING
  upsampling_param {
    kernel_size: 2
  }
}
layers {
  bottom: "ep_upsample_271"
  top: "ep_conv_5x5_1_272"
  name: "conv_5x5_1_427"
  type: CONVOLUTION
  blobs_lr: 1
  blobs_lr: 2
  weight_decay: 1
  weight_decay: 0
  convolution_param {
    num_output: 128
    pad: 2
    kernel_size: 5
    stride: 1
    weight_filler {
      type: "xavier"
    }
    bias_filler {
      type: "constant"
      value: 0.1
    }
  }
  param: "dec_img_conv1_w"
  param: "dec_img_conv1_b"
}
layers {
  bottom: "ep_conv_5x5_1_272"
  top: "ep_conv_5x5_1_272"
  name: "relu_458"
  type: RELU
}
layers {
  bottom: "ep_conv_5x5_1_272"
  top: "ep_upsample_273"
  name: "upsample_489"
  type: UPSAMPLING
  upsampling_param {
    kernel_size: 2
  }
}
layers {
  bottom: "ep_upsample_273"
  top: "ep_conv_5x5_1_274"
  name: "conv_5x5_1_520"
  type: CONVOLUTION
  blobs_lr: 1
  blobs_lr: 2
  weight_decay: 1
  weight_decay: 0
  convolution_param {
    num_output: 64
    pad: 2
    kernel_size: 5
    stride: 1
    weight_filler {
      type: "xavier"
    }
    bias_filler {
      type: "constant"
      value: 0.1
    }
  }
  param: "dec_img_conv2_w"
  param: "dec_img_conv2_b"
}
layers {
  bottom: "ep_conv_5x5_1_274"
  top: "ep_conv_5x5_1_274"
  name: "relu_551"
  type: RELU
}
layers {
  bottom: "ep_conv_5x5_1_274"
  top: "ep_upsample_275"
  name: "upsample_582"
  type: UPSAMPLING
  upsampling_param {
    kernel_size: 2
  }
}
layers {
  bottom: "ep_upsample_275"
  top: "ep_t10_conv_5x5_1_794"
  name: "t10_conv_5x5_1_613"
  type: CONVOLUTION
  blobs_lr: 1
  blobs_lr: 2
  weight_decay: 1
  weight_decay: 0
  convolution_param {
    num_output: 3
    pad: 2
    kernel_size: 5
    stride: 1
    weight_filler {
      type: "xavier"
    }
    bias_filler {
      type: "constant"
      value: 0.1
    }
  }
  param: "dec_img_conv3_w"
  param: "dec_img_conv3_b"
}
layers {
  bottom: "ep_split_276"
  top: "ep_inner_product_277"
  name: "inner_product_644"
  type: INNER_PRODUCT
  blobs_lr: 1
  blobs_lr: 2
  weight_decay: 1
  weight_decay: 0
  inner_product_param {
    num_output: 8192
    weight_filler {
      type: "xavier"
    }
    bias_filler {
      type: "constant"
      value: 0.1
    }
  }
  param: "dec_mask_fc1_w"
  param: "dec_mask_fc1_b"
}
layers {
  bottom: "ep_inner_product_277"
  top: "ep_inner_product_277"
  name: "relu_675"
  type: RELU
}
layers {
  bottom: "ep_inner_product_277"
  top: "ep_folding_278"
  name: "folding_706"
  type: FOLDING
  folding_param {
    channels_folded: 128
    height_folded: 8
    width_folded: 8
  }
}
layers {
  bottom: "ep_folding_278"
  top: "ep_upsample_279"
  name: "upsample_737"
  type: UPSAMPLING
  upsampling_param {
    kernel_size: 2
  }
}
layers {
  bottom: "ep_upsample_279"
  top: "ep_conv_5x5_1_280"
  name: "conv_5x5_1_768"
  type: CONVOLUTION
  blobs_lr: 1
  blobs_lr: 2
  weight_decay: 1
  weight_decay: 0
  convolution_param {
    num_output: 64
    pad: 2
    kernel_size: 5
    stride: 1
    weight_filler {
      type: "xavier"
    }
    bias_filler {
      type: "constant"
      value: 0.1
    }
  }
  param: "dec_mask_conv1_w"
  param: "dec_mask_conv1_b"
}
layers {
  bottom: "ep_conv_5x5_1_280"
  top: "ep_conv_5x5_1_280"
  name: "relu_799"
  type: RELU
}
layers {
  bottom: "ep_conv_5x5_1_280"
  top: "ep_upsample_281"
  name: "upsample_830"
  type: UPSAMPLING
  upsampling_param {
    kernel_size: 2
  }
}
layers {
  bottom: "ep_upsample_281"
  top: "ep_conv_5x5_1_282"
  name: "conv_5x5_1_861"
  type: CONVOLUTION
  blobs_lr: 1
  blobs_lr: 2
  weight_decay: 1
  weight_decay: 0
  convolution_param {
    num_output: 32
    pad: 2
    kernel_size: 5
    stride: 1
    weight_filler {
      type: "xavier"
    }
    bias_filler {
      type: "constant"
      value: 0.1
    }
  }
  param: "dec_mask_conv2_w"
  param: "dec_mask_conv2_b"
}
layers {
  bottom: "ep_conv_5x5_1_282"
  top: "ep_conv_5x5_1_282"
  name: "relu_892"
  type: RELU
}
layers {
  bottom: "ep_conv_5x5_1_282"
  top: "ep_upsample_283"
  name: "upsample_923"
  type: UPSAMPLING
  upsampling_param {
    kernel_size: 2
  }
}
layers {
  bottom: "ep_upsample_283"
  top: "ep_t10_conv_5x5_1_825"
  name: "t10_conv_5x5_1_954"
  type: CONVOLUTION
  blobs_lr: 1
  blobs_lr: 2
  weight_decay: 1
  weight_decay: 0
  convolution_param {
    num_output: 1
    pad: 2
    kernel_size: 5
    stride: 1
    weight_filler {
      type: "xavier"
    }
    bias_filler {
      type: "constant"
      value: 0.1
    }
  }
  param: "dec_mask_conv3_w"
  param: "dec_mask_conv3_b"
}
layers {
  bottom: "ep_split_284"
  bottom: "rotations11"
  top: "ep_tensor_product_285"
  name: "tensor_product_25"
  type: TENSOR_PRODUCT
  blobs_lr: 1
  blobs_lr: 2
  weight_decay: 1
  weight_decay: 0
  inner_product_param {
    num_output: 512
    weight_filler {
      type: "xavier"
    }
    bias_filler {
      type: "constant"
      value: 0.1
    }
  }
  param: "tensor_view_w"
  param: "tensor_view_b"
}
layers {
  bottom: "ep_tensor_product_285"
  top: "ep_relu_286"
  name: "relu_56"
  type: RELU
}
layers {
  bottom: "ep_relu_286"
  top: "ep_split_288"
  top: "ep_split_309"
  name: "split_87"
  type: SPLIT
}
layers {
  bottom: "ep_split_287"
  bottom: "ep_split_288"
  top: "ep_concat_289"
  name: "concat_118"
  type: CONCAT
  concat_param {
    concat_dim: 1
  }
}
layers {
  bottom: "ep_concat_289"
  top: "ep_inner_product_290"
  name: "inner_product_149"
  type: INNER_PRODUCT
  blobs_lr: 1
  blobs_lr: 2
  weight_decay: 1
  weight_decay: 0
  inner_product_param {
    num_output: 1024
    weight_filler {
      type: "xavier"
    }
    bias_filler {
      type: "constant"
      value: 0.1
    }
  }
  param: "dec_fc1_w"
  param: "dec_fc1_b"
}
layers {
  bottom: "ep_inner_product_290"
  top: "ep_inner_product_290"
  name: "relu_180"
  type: RELU
}
layers {
  bottom: "ep_inner_product_290"
  top: "ep_inner_product_291"
  name: "inner_product_211"
  type: INNER_PRODUCT
  blobs_lr: 1
  blobs_lr: 2
  weight_decay: 1
  weight_decay: 0
  inner_product_param {
    num_output: 1024
    weight_filler {
      type: "xavier"
    }
    bias_filler {
      type: "constant"
      value: 0.1
    }
  }
  param: "dec_fc2_w"
  param: "dec_fc2_b"
}
layers {
  bottom: "ep_inner_product_291"
  top: "ep_relu_292"
  name: "relu_242"
  type: RELU
}
layers {
  bottom: "ep_relu_292"
  top: "ep_split_293"
  top: "ep_split_301"
  name: "split_273"
  type: SPLIT
}
layers {
  bottom: "ep_split_293"
  top: "ep_inner_product_294"
  name: "inner_product_304"
  type: INNER_PRODUCT
  blobs_lr: 1
  blobs_lr: 2
  weight_decay: 1
  weight_decay: 0
  inner_product_param {
    num_output: 16384
    weight_filler {
      type: "xavier"
    }
    bias_filler {
      type: "constant"
      value: 0.1
    }
  }
  param: "dec_img_fc1_w"
  param: "dec_img_fc1_b"
}
layers {
  bottom: "ep_inner_product_294"
  top: "ep_inner_product_294"
  name: "relu_335"
  type: RELU
}
layers {
  bottom: "ep_inner_product_294"
  top: "ep_folding_295"
  name: "folding_366"
  type: FOLDING
  folding_param {
    channels_folded: 256
    height_folded: 8
    width_folded: 8
  }
}
layers {
  bottom: "ep_folding_295"
  top: "ep_upsample_296"
  name: "upsample_397"
  type: UPSAMPLING
  upsampling_param {
    kernel_size: 2
  }
}
layers {
  bottom: "ep_upsample_296"
  top: "ep_conv_5x5_1_297"
  name: "conv_5x5_1_428"
  type: CONVOLUTION
  blobs_lr: 1
  blobs_lr: 2
  weight_decay: 1
  weight_decay: 0
  convolution_param {
    num_output: 128
    pad: 2
    kernel_size: 5
    stride: 1
    weight_filler {
      type: "xavier"
    }
    bias_filler {
      type: "constant"
      value: 0.1
    }
  }
  param: "dec_img_conv1_w"
  param: "dec_img_conv1_b"
}
layers {
  bottom: "ep_conv_5x5_1_297"
  top: "ep_conv_5x5_1_297"
  name: "relu_459"
  type: RELU
}
layers {
  bottom: "ep_conv_5x5_1_297"
  top: "ep_upsample_298"
  name: "upsample_490"
  type: UPSAMPLING
  upsampling_param {
    kernel_size: 2
  }
}
layers {
  bottom: "ep_upsample_298"
  top: "ep_conv_5x5_1_299"
  name: "conv_5x5_1_521"
  type: CONVOLUTION
  blobs_lr: 1
  blobs_lr: 2
  weight_decay: 1
  weight_decay: 0
  convolution_param {
    num_output: 64
    pad: 2
    kernel_size: 5
    stride: 1
    weight_filler {
      type: "xavier"
    }
    bias_filler {
      type: "constant"
      value: 0.1
    }
  }
  param: "dec_img_conv2_w"
  param: "dec_img_conv2_b"
}
layers {
  bottom: "ep_conv_5x5_1_299"
  top: "ep_conv_5x5_1_299"
  name: "relu_552"
  type: RELU
}
layers {
  bottom: "ep_conv_5x5_1_299"
  top: "ep_upsample_300"
  name: "upsample_583"
  type: UPSAMPLING
  upsampling_param {
    kernel_size: 2
  }
}
layers {
  bottom: "ep_upsample_300"
  top: "ep_t11_conv_5x5_1_795"
  name: "t11_conv_5x5_1_614"
  type: CONVOLUTION
  blobs_lr: 1
  blobs_lr: 2
  weight_decay: 1
  weight_decay: 0
  convolution_param {
    num_output: 3
    pad: 2
    kernel_size: 5
    stride: 1
    weight_filler {
      type: "xavier"
    }
    bias_filler {
      type: "constant"
      value: 0.1
    }
  }
  param: "dec_img_conv3_w"
  param: "dec_img_conv3_b"
}
layers {
  bottom: "ep_split_301"
  top: "ep_inner_product_302"
  name: "inner_product_645"
  type: INNER_PRODUCT
  blobs_lr: 1
  blobs_lr: 2
  weight_decay: 1
  weight_decay: 0
  inner_product_param {
    num_output: 8192
    weight_filler {
      type: "xavier"
    }
    bias_filler {
      type: "constant"
      value: 0.1
    }
  }
  param: "dec_mask_fc1_w"
  param: "dec_mask_fc1_b"
}
layers {
  bottom: "ep_inner_product_302"
  top: "ep_inner_product_302"
  name: "relu_676"
  type: RELU
}
layers {
  bottom: "ep_inner_product_302"
  top: "ep_folding_303"
  name: "folding_707"
  type: FOLDING
  folding_param {
    channels_folded: 128
    height_folded: 8
    width_folded: 8
  }
}
layers {
  bottom: "ep_folding_303"
  top: "ep_upsample_304"
  name: "upsample_738"
  type: UPSAMPLING
  upsampling_param {
    kernel_size: 2
  }
}
layers {
  bottom: "ep_upsample_304"
  top: "ep_conv_5x5_1_305"
  name: "conv_5x5_1_769"
  type: CONVOLUTION
  blobs_lr: 1
  blobs_lr: 2
  weight_decay: 1
  weight_decay: 0
  convolution_param {
    num_output: 64
    pad: 2
    kernel_size: 5
    stride: 1
    weight_filler {
      type: "xavier"
    }
    bias_filler {
      type: "constant"
      value: 0.1
    }
  }
  param: "dec_mask_conv1_w"
  param: "dec_mask_conv1_b"
}
layers {
  bottom: "ep_conv_5x5_1_305"
  top: "ep_conv_5x5_1_305"
  name: "relu_800"
  type: RELU
}
layers {
  bottom: "ep_conv_5x5_1_305"
  top: "ep_upsample_306"
  name: "upsample_831"
  type: UPSAMPLING
  upsampling_param {
    kernel_size: 2
  }
}
layers {
  bottom: "ep_upsample_306"
  top: "ep_conv_5x5_1_307"
  name: "conv_5x5_1_862"
  type: CONVOLUTION
  blobs_lr: 1
  blobs_lr: 2
  weight_decay: 1
  weight_decay: 0
  convolution_param {
    num_output: 32
    pad: 2
    kernel_size: 5
    stride: 1
    weight_filler {
      type: "xavier"
    }
    bias_filler {
      type: "constant"
      value: 0.1
    }
  }
  param: "dec_mask_conv2_w"
  param: "dec_mask_conv2_b"
}
layers {
  bottom: "ep_conv_5x5_1_307"
  top: "ep_conv_5x5_1_307"
  name: "relu_893"
  type: RELU
}
layers {
  bottom: "ep_conv_5x5_1_307"
  top: "ep_upsample_308"
  name: "upsample_924"
  type: UPSAMPLING
  upsampling_param {
    kernel_size: 2
  }
}
layers {
  bottom: "ep_upsample_308"
  top: "ep_t11_conv_5x5_1_826"
  name: "t11_conv_5x5_1_955"
  type: CONVOLUTION
  blobs_lr: 1
  blobs_lr: 2
  weight_decay: 1
  weight_decay: 0
  convolution_param {
    num_output: 1
    pad: 2
    kernel_size: 5
    stride: 1
    weight_filler {
      type: "xavier"
    }
    bias_filler {
      type: "constant"
      value: 0.1
    }
  }
  param: "dec_mask_conv3_w"
  param: "dec_mask_conv3_b"
}
layers {
  bottom: "ep_split_309"
  bottom: "rotations12"
  top: "ep_tensor_product_310"
  name: "tensor_product_26"
  type: TENSOR_PRODUCT
  blobs_lr: 1
  blobs_lr: 2
  weight_decay: 1
  weight_decay: 0
  inner_product_param {
    num_output: 512
    weight_filler {
      type: "xavier"
    }
    bias_filler {
      type: "constant"
      value: 0.1
    }
  }
  param: "tensor_view_w"
  param: "tensor_view_b"
}
layers {
  bottom: "ep_tensor_product_310"
  top: "ep_relu_311"
  name: "relu_57"
  type: RELU
}
layers {
  bottom: "ep_relu_311"
  top: "ep_split_313"
  top: "ep_split_334"
  name: "split_88"
  type: SPLIT
}
layers {
  bottom: "ep_split_312"
  bottom: "ep_split_313"
  top: "ep_concat_314"
  name: "concat_119"
  type: CONCAT
  concat_param {
    concat_dim: 1
  }
}
layers {
  bottom: "ep_concat_314"
  top: "ep_inner_product_315"
  name: "inner_product_150"
  type: INNER_PRODUCT
  blobs_lr: 1
  blobs_lr: 2
  weight_decay: 1
  weight_decay: 0
  inner_product_param {
    num_output: 1024
    weight_filler {
      type: "xavier"
    }
    bias_filler {
      type: "constant"
      value: 0.1
    }
  }
  param: "dec_fc1_w"
  param: "dec_fc1_b"
}
layers {
  bottom: "ep_inner_product_315"
  top: "ep_inner_product_315"
  name: "relu_181"
  type: RELU
}
layers {
  bottom: "ep_inner_product_315"
  top: "ep_inner_product_316"
  name: "inner_product_212"
  type: INNER_PRODUCT
  blobs_lr: 1
  blobs_lr: 2
  weight_decay: 1
  weight_decay: 0
  inner_product_param {
    num_output: 1024
    weight_filler {
      type: "xavier"
    }
    bias_filler {
      type: "constant"
      value: 0.1
    }
  }
  param: "dec_fc2_w"
  param: "dec_fc2_b"
}
layers {
  bottom: "ep_inner_product_316"
  top: "ep_relu_317"
  name: "relu_243"
  type: RELU
}
layers {
  bottom: "ep_relu_317"
  top: "ep_split_318"
  top: "ep_split_326"
  name: "split_274"
  type: SPLIT
}
layers {
  bottom: "ep_split_318"
  top: "ep_inner_product_319"
  name: "inner_product_305"
  type: INNER_PRODUCT
  blobs_lr: 1
  blobs_lr: 2
  weight_decay: 1
  weight_decay: 0
  inner_product_param {
    num_output: 16384
    weight_filler {
      type: "xavier"
    }
    bias_filler {
      type: "constant"
      value: 0.1
    }
  }
  param: "dec_img_fc1_w"
  param: "dec_img_fc1_b"
}
layers {
  bottom: "ep_inner_product_319"
  top: "ep_inner_product_319"
  name: "relu_336"
  type: RELU
}
layers {
  bottom: "ep_inner_product_319"
  top: "ep_folding_320"
  name: "folding_367"
  type: FOLDING
  folding_param {
    channels_folded: 256
    height_folded: 8
    width_folded: 8
  }
}
layers {
  bottom: "ep_folding_320"
  top: "ep_upsample_321"
  name: "upsample_398"
  type: UPSAMPLING
  upsampling_param {
    kernel_size: 2
  }
}
layers {
  bottom: "ep_upsample_321"
  top: "ep_conv_5x5_1_322"
  name: "conv_5x5_1_429"
  type: CONVOLUTION
  blobs_lr: 1
  blobs_lr: 2
  weight_decay: 1
  weight_decay: 0
  convolution_param {
    num_output: 128
    pad: 2
    kernel_size: 5
    stride: 1
    weight_filler {
      type: "xavier"
    }
    bias_filler {
      type: "constant"
      value: 0.1
    }
  }
  param: "dec_img_conv1_w"
  param: "dec_img_conv1_b"
}
layers {
  bottom: "ep_conv_5x5_1_322"
  top: "ep_conv_5x5_1_322"
  name: "relu_460"
  type: RELU
}
layers {
  bottom: "ep_conv_5x5_1_322"
  top: "ep_upsample_323"
  name: "upsample_491"
  type: UPSAMPLING
  upsampling_param {
    kernel_size: 2
  }
}
layers {
  bottom: "ep_upsample_323"
  top: "ep_conv_5x5_1_324"
  name: "conv_5x5_1_522"
  type: CONVOLUTION
  blobs_lr: 1
  blobs_lr: 2
  weight_decay: 1
  weight_decay: 0
  convolution_param {
    num_output: 64
    pad: 2
    kernel_size: 5
    stride: 1
    weight_filler {
      type: "xavier"
    }
    bias_filler {
      type: "constant"
      value: 0.1
    }
  }
  param: "dec_img_conv2_w"
  param: "dec_img_conv2_b"
}
layers {
  bottom: "ep_conv_5x5_1_324"
  top: "ep_conv_5x5_1_324"
  name: "relu_553"
  type: RELU
}
layers {
  bottom: "ep_conv_5x5_1_324"
  top: "ep_upsample_325"
  name: "upsample_584"
  type: UPSAMPLING
  upsampling_param {
    kernel_size: 2
  }
}
layers {
  bottom: "ep_upsample_325"
  top: "ep_t12_conv_5x5_1_796"
  name: "t12_conv_5x5_1_615"
  type: CONVOLUTION
  blobs_lr: 1
  blobs_lr: 2
  weight_decay: 1
  weight_decay: 0
  convolution_param {
    num_output: 3
    pad: 2
    kernel_size: 5
    stride: 1
    weight_filler {
      type: "xavier"
    }
    bias_filler {
      type: "constant"
      value: 0.1
    }
  }
  param: "dec_img_conv3_w"
  param: "dec_img_conv3_b"
}
layers {
  bottom: "ep_split_326"
  top: "ep_inner_product_327"
  name: "inner_product_646"
  type: INNER_PRODUCT
  blobs_lr: 1
  blobs_lr: 2
  weight_decay: 1
  weight_decay: 0
  inner_product_param {
    num_output: 8192
    weight_filler {
      type: "xavier"
    }
    bias_filler {
      type: "constant"
      value: 0.1
    }
  }
  param: "dec_mask_fc1_w"
  param: "dec_mask_fc1_b"
}
layers {
  bottom: "ep_inner_product_327"
  top: "ep_inner_product_327"
  name: "relu_677"
  type: RELU
}
layers {
  bottom: "ep_inner_product_327"
  top: "ep_folding_328"
  name: "folding_708"
  type: FOLDING
  folding_param {
    channels_folded: 128
    height_folded: 8
    width_folded: 8
  }
}
layers {
  bottom: "ep_folding_328"
  top: "ep_upsample_329"
  name: "upsample_739"
  type: UPSAMPLING
  upsampling_param {
    kernel_size: 2
  }
}
layers {
  bottom: "ep_upsample_329"
  top: "ep_conv_5x5_1_330"
  name: "conv_5x5_1_770"
  type: CONVOLUTION
  blobs_lr: 1
  blobs_lr: 2
  weight_decay: 1
  weight_decay: 0
  convolution_param {
    num_output: 64
    pad: 2
    kernel_size: 5
    stride: 1
    weight_filler {
      type: "xavier"
    }
    bias_filler {
      type: "constant"
      value: 0.1
    }
  }
  param: "dec_mask_conv1_w"
  param: "dec_mask_conv1_b"
}
layers {
  bottom: "ep_conv_5x5_1_330"
  top: "ep_conv_5x5_1_330"
  name: "relu_801"
  type: RELU
}
layers {
  bottom: "ep_conv_5x5_1_330"
  top: "ep_upsample_331"
  name: "upsample_832"
  type: UPSAMPLING
  upsampling_param {
    kernel_size: 2
  }
}
layers {
  bottom: "ep_upsample_331"
  top: "ep_conv_5x5_1_332"
  name: "conv_5x5_1_863"
  type: CONVOLUTION
  blobs_lr: 1
  blobs_lr: 2
  weight_decay: 1
  weight_decay: 0
  convolution_param {
    num_output: 32
    pad: 2
    kernel_size: 5
    stride: 1
    weight_filler {
      type: "xavier"
    }
    bias_filler {
      type: "constant"
      value: 0.1
    }
  }
  param: "dec_mask_conv2_w"
  param: "dec_mask_conv2_b"
}
layers {
  bottom: "ep_conv_5x5_1_332"
  top: "ep_conv_5x5_1_332"
  name: "relu_894"
  type: RELU
}
layers {
  bottom: "ep_conv_5x5_1_332"
  top: "ep_upsample_333"
  name: "upsample_925"
  type: UPSAMPLING
  upsampling_param {
    kernel_size: 2
  }
}
layers {
  bottom: "ep_upsample_333"
  top: "ep_t12_conv_5x5_1_827"
  name: "t12_conv_5x5_1_956"
  type: CONVOLUTION
  blobs_lr: 1
  blobs_lr: 2
  weight_decay: 1
  weight_decay: 0
  convolution_param {
    num_output: 1
    pad: 2
    kernel_size: 5
    stride: 1
    weight_filler {
      type: "xavier"
    }
    bias_filler {
      type: "constant"
      value: 0.1
    }
  }
  param: "dec_mask_conv3_w"
  param: "dec_mask_conv3_b"
}
layers {
  bottom: "ep_split_334"
  bottom: "rotations13"
  top: "ep_tensor_product_335"
  name: "tensor_product_27"
  type: TENSOR_PRODUCT
  blobs_lr: 1
  blobs_lr: 2
  weight_decay: 1
  weight_decay: 0
  inner_product_param {
    num_output: 512
    weight_filler {
      type: "xavier"
    }
    bias_filler {
      type: "constant"
      value: 0.1
    }
  }
  param: "tensor_view_w"
  param: "tensor_view_b"
}
layers {
  bottom: "ep_tensor_product_335"
  top: "ep_relu_336"
  name: "relu_58"
  type: RELU
}
layers {
  bottom: "ep_relu_336"
  top: "ep_split_338"
  top: "ep_split_359"
  name: "split_89"
  type: SPLIT
}
layers {
  bottom: "ep_split_337"
  bottom: "ep_split_338"
  top: "ep_concat_339"
  name: "concat_120"
  type: CONCAT
  concat_param {
    concat_dim: 1
  }
}
layers {
  bottom: "ep_concat_339"
  top: "ep_inner_product_340"
  name: "inner_product_151"
  type: INNER_PRODUCT
  blobs_lr: 1
  blobs_lr: 2
  weight_decay: 1
  weight_decay: 0
  inner_product_param {
    num_output: 1024
    weight_filler {
      type: "xavier"
    }
    bias_filler {
      type: "constant"
      value: 0.1
    }
  }
  param: "dec_fc1_w"
  param: "dec_fc1_b"
}
layers {
  bottom: "ep_inner_product_340"
  top: "ep_inner_product_340"
  name: "relu_182"
  type: RELU
}
layers {
  bottom: "ep_inner_product_340"
  top: "ep_inner_product_341"
  name: "inner_product_213"
  type: INNER_PRODUCT
  blobs_lr: 1
  blobs_lr: 2
  weight_decay: 1
  weight_decay: 0
  inner_product_param {
    num_output: 1024
    weight_filler {
      type: "xavier"
    }
    bias_filler {
      type: "constant"
      value: 0.1
    }
  }
  param: "dec_fc2_w"
  param: "dec_fc2_b"
}
layers {
  bottom: "ep_inner_product_341"
  top: "ep_relu_342"
  name: "relu_244"
  type: RELU
}
layers {
  bottom: "ep_relu_342"
  top: "ep_split_343"
  top: "ep_split_351"
  name: "split_275"
  type: SPLIT
}
layers {
  bottom: "ep_split_343"
  top: "ep_inner_product_344"
  name: "inner_product_306"
  type: INNER_PRODUCT
  blobs_lr: 1
  blobs_lr: 2
  weight_decay: 1
  weight_decay: 0
  inner_product_param {
    num_output: 16384
    weight_filler {
      type: "xavier"
    }
    bias_filler {
      type: "constant"
      value: 0.1
    }
  }
  param: "dec_img_fc1_w"
  param: "dec_img_fc1_b"
}
layers {
  bottom: "ep_inner_product_344"
  top: "ep_inner_product_344"
  name: "relu_337"
  type: RELU
}
layers {
  bottom: "ep_inner_product_344"
  top: "ep_folding_345"
  name: "folding_368"
  type: FOLDING
  folding_param {
    channels_folded: 256
    height_folded: 8
    width_folded: 8
  }
}
layers {
  bottom: "ep_folding_345"
  top: "ep_upsample_346"
  name: "upsample_399"
  type: UPSAMPLING
  upsampling_param {
    kernel_size: 2
  }
}
layers {
  bottom: "ep_upsample_346"
  top: "ep_conv_5x5_1_347"
  name: "conv_5x5_1_430"
  type: CONVOLUTION
  blobs_lr: 1
  blobs_lr: 2
  weight_decay: 1
  weight_decay: 0
  convolution_param {
    num_output: 128
    pad: 2
    kernel_size: 5
    stride: 1
    weight_filler {
      type: "xavier"
    }
    bias_filler {
      type: "constant"
      value: 0.1
    }
  }
  param: "dec_img_conv1_w"
  param: "dec_img_conv1_b"
}
layers {
  bottom: "ep_conv_5x5_1_347"
  top: "ep_conv_5x5_1_347"
  name: "relu_461"
  type: RELU
}
layers {
  bottom: "ep_conv_5x5_1_347"
  top: "ep_upsample_348"
  name: "upsample_492"
  type: UPSAMPLING
  upsampling_param {
    kernel_size: 2
  }
}
layers {
  bottom: "ep_upsample_348"
  top: "ep_conv_5x5_1_349"
  name: "conv_5x5_1_523"
  type: CONVOLUTION
  blobs_lr: 1
  blobs_lr: 2
  weight_decay: 1
  weight_decay: 0
  convolution_param {
    num_output: 64
    pad: 2
    kernel_size: 5
    stride: 1
    weight_filler {
      type: "xavier"
    }
    bias_filler {
      type: "constant"
      value: 0.1
    }
  }
  param: "dec_img_conv2_w"
  param: "dec_img_conv2_b"
}
layers {
  bottom: "ep_conv_5x5_1_349"
  top: "ep_conv_5x5_1_349"
  name: "relu_554"
  type: RELU
}
layers {
  bottom: "ep_conv_5x5_1_349"
  top: "ep_upsample_350"
  name: "upsample_585"
  type: UPSAMPLING
  upsampling_param {
    kernel_size: 2
  }
}
layers {
  bottom: "ep_upsample_350"
  top: "ep_t13_conv_5x5_1_797"
  name: "t13_conv_5x5_1_616"
  type: CONVOLUTION
  blobs_lr: 1
  blobs_lr: 2
  weight_decay: 1
  weight_decay: 0
  convolution_param {
    num_output: 3
    pad: 2
    kernel_size: 5
    stride: 1
    weight_filler {
      type: "xavier"
    }
    bias_filler {
      type: "constant"
      value: 0.1
    }
  }
  param: "dec_img_conv3_w"
  param: "dec_img_conv3_b"
}
layers {
  bottom: "ep_split_351"
  top: "ep_inner_product_352"
  name: "inner_product_647"
  type: INNER_PRODUCT
  blobs_lr: 1
  blobs_lr: 2
  weight_decay: 1
  weight_decay: 0
  inner_product_param {
    num_output: 8192
    weight_filler {
      type: "xavier"
    }
    bias_filler {
      type: "constant"
      value: 0.1
    }
  }
  param: "dec_mask_fc1_w"
  param: "dec_mask_fc1_b"
}
layers {
  bottom: "ep_inner_product_352"
  top: "ep_inner_product_352"
  name: "relu_678"
  type: RELU
}
layers {
  bottom: "ep_inner_product_352"
  top: "ep_folding_353"
  name: "folding_709"
  type: FOLDING
  folding_param {
    channels_folded: 128
    height_folded: 8
    width_folded: 8
  }
}
layers {
  bottom: "ep_folding_353"
  top: "ep_upsample_354"
  name: "upsample_740"
  type: UPSAMPLING
  upsampling_param {
    kernel_size: 2
  }
}
layers {
  bottom: "ep_upsample_354"
  top: "ep_conv_5x5_1_355"
  name: "conv_5x5_1_771"
  type: CONVOLUTION
  blobs_lr: 1
  blobs_lr: 2
  weight_decay: 1
  weight_decay: 0
  convolution_param {
    num_output: 64
    pad: 2
    kernel_size: 5
    stride: 1
    weight_filler {
      type: "xavier"
    }
    bias_filler {
      type: "constant"
      value: 0.1
    }
  }
  param: "dec_mask_conv1_w"
  param: "dec_mask_conv1_b"
}
layers {
  bottom: "ep_conv_5x5_1_355"
  top: "ep_conv_5x5_1_355"
  name: "relu_802"
  type: RELU
}
layers {
  bottom: "ep_conv_5x5_1_355"
  top: "ep_upsample_356"
  name: "upsample_833"
  type: UPSAMPLING
  upsampling_param {
    kernel_size: 2
  }
}
layers {
  bottom: "ep_upsample_356"
  top: "ep_conv_5x5_1_357"
  name: "conv_5x5_1_864"
  type: CONVOLUTION
  blobs_lr: 1
  blobs_lr: 2
  weight_decay: 1
  weight_decay: 0
  convolution_param {
    num_output: 32
    pad: 2
    kernel_size: 5
    stride: 1
    weight_filler {
      type: "xavier"
    }
    bias_filler {
      type: "constant"
      value: 0.1
    }
  }
  param: "dec_mask_conv2_w"
  param: "dec_mask_conv2_b"
}
layers {
  bottom: "ep_conv_5x5_1_357"
  top: "ep_conv_5x5_1_357"
  name: "relu_895"
  type: RELU
}
layers {
  bottom: "ep_conv_5x5_1_357"
  top: "ep_upsample_358"
  name: "upsample_926"
  type: UPSAMPLING
  upsampling_param {
    kernel_size: 2
  }
}
layers {
  bottom: "ep_upsample_358"
  top: "ep_t13_conv_5x5_1_828"
  name: "t13_conv_5x5_1_957"
  type: CONVOLUTION
  blobs_lr: 1
  blobs_lr: 2
  weight_decay: 1
  weight_decay: 0
  convolution_param {
    num_output: 1
    pad: 2
    kernel_size: 5
    stride: 1
    weight_filler {
      type: "xavier"
    }
    bias_filler {
      type: "constant"
      value: 0.1
    }
  }
  param: "dec_mask_conv3_w"
  param: "dec_mask_conv3_b"
}
layers {
  bottom: "ep_split_359"
  bottom: "rotations14"
  top: "ep_tensor_product_360"
  name: "tensor_product_28"
  type: TENSOR_PRODUCT
  blobs_lr: 1
  blobs_lr: 2
  weight_decay: 1
  weight_decay: 0
  inner_product_param {
    num_output: 512
    weight_filler {
      type: "xavier"
    }
    bias_filler {
      type: "constant"
      value: 0.1
    }
  }
  param: "tensor_view_w"
  param: "tensor_view_b"
}
layers {
  bottom: "ep_tensor_product_360"
  top: "ep_relu_361"
  name: "relu_59"
  type: RELU
}
layers {
  bottom: "ep_relu_361"
  top: "ep_split_363"
  top: "ep_split_384"
  name: "split_90"
  type: SPLIT
}
layers {
  bottom: "ep_split_362"
  bottom: "ep_split_363"
  top: "ep_concat_364"
  name: "concat_121"
  type: CONCAT
  concat_param {
    concat_dim: 1
  }
}
layers {
  bottom: "ep_concat_364"
  top: "ep_inner_product_365"
  name: "inner_product_152"
  type: INNER_PRODUCT
  blobs_lr: 1
  blobs_lr: 2
  weight_decay: 1
  weight_decay: 0
  inner_product_param {
    num_output: 1024
    weight_filler {
      type: "xavier"
    }
    bias_filler {
      type: "constant"
      value: 0.1
    }
  }
  param: "dec_fc1_w"
  param: "dec_fc1_b"
}
layers {
  bottom: "ep_inner_product_365"
  top: "ep_inner_product_365"
  name: "relu_183"
  type: RELU
}
layers {
  bottom: "ep_inner_product_365"
  top: "ep_inner_product_366"
  name: "inner_product_214"
  type: INNER_PRODUCT
  blobs_lr: 1
  blobs_lr: 2
  weight_decay: 1
  weight_decay: 0
  inner_product_param {
    num_output: 1024
    weight_filler {
      type: "xavier"
    }
    bias_filler {
      type: "constant"
      value: 0.1
    }
  }
  param: "dec_fc2_w"
  param: "dec_fc2_b"
}
layers {
  bottom: "ep_inner_product_366"
  top: "ep_relu_367"
  name: "relu_245"
  type: RELU
}
layers {
  bottom: "ep_relu_367"
  top: "ep_split_368"
  top: "ep_split_376"
  name: "split_276"
  type: SPLIT
}
layers {
  bottom: "ep_split_368"
  top: "ep_inner_product_369"
  name: "inner_product_307"
  type: INNER_PRODUCT
  blobs_lr: 1
  blobs_lr: 2
  weight_decay: 1
  weight_decay: 0
  inner_product_param {
    num_output: 16384
    weight_filler {
      type: "xavier"
    }
    bias_filler {
      type: "constant"
      value: 0.1
    }
  }
  param: "dec_img_fc1_w"
  param: "dec_img_fc1_b"
}
layers {
  bottom: "ep_inner_product_369"
  top: "ep_inner_product_369"
  name: "relu_338"
  type: RELU
}
layers {
  bottom: "ep_inner_product_369"
  top: "ep_folding_370"
  name: "folding_369"
  type: FOLDING
  folding_param {
    channels_folded: 256
    height_folded: 8
    width_folded: 8
  }
}
layers {
  bottom: "ep_folding_370"
  top: "ep_upsample_371"
  name: "upsample_400"
  type: UPSAMPLING
  upsampling_param {
    kernel_size: 2
  }
}
layers {
  bottom: "ep_upsample_371"
  top: "ep_conv_5x5_1_372"
  name: "conv_5x5_1_431"
  type: CONVOLUTION
  blobs_lr: 1
  blobs_lr: 2
  weight_decay: 1
  weight_decay: 0
  convolution_param {
    num_output: 128
    pad: 2
    kernel_size: 5
    stride: 1
    weight_filler {
      type: "xavier"
    }
    bias_filler {
      type: "constant"
      value: 0.1
    }
  }
  param: "dec_img_conv1_w"
  param: "dec_img_conv1_b"
}
layers {
  bottom: "ep_conv_5x5_1_372"
  top: "ep_conv_5x5_1_372"
  name: "relu_462"
  type: RELU
}
layers {
  bottom: "ep_conv_5x5_1_372"
  top: "ep_upsample_373"
  name: "upsample_493"
  type: UPSAMPLING
  upsampling_param {
    kernel_size: 2
  }
}
layers {
  bottom: "ep_upsample_373"
  top: "ep_conv_5x5_1_374"
  name: "conv_5x5_1_524"
  type: CONVOLUTION
  blobs_lr: 1
  blobs_lr: 2
  weight_decay: 1
  weight_decay: 0
  convolution_param {
    num_output: 64
    pad: 2
    kernel_size: 5
    stride: 1
    weight_filler {
      type: "xavier"
    }
    bias_filler {
      type: "constant"
      value: 0.1
    }
  }
  param: "dec_img_conv2_w"
  param: "dec_img_conv2_b"
}
layers {
  bottom: "ep_conv_5x5_1_374"
  top: "ep_conv_5x5_1_374"
  name: "relu_555"
  type: RELU
}
layers {
  bottom: "ep_conv_5x5_1_374"
  top: "ep_upsample_375"
  name: "upsample_586"
  type: UPSAMPLING
  upsampling_param {
    kernel_size: 2
  }
}
layers {
  bottom: "ep_upsample_375"
  top: "ep_t14_conv_5x5_1_798"
  name: "t14_conv_5x5_1_617"
  type: CONVOLUTION
  blobs_lr: 1
  blobs_lr: 2
  weight_decay: 1
  weight_decay: 0
  convolution_param {
    num_output: 3
    pad: 2
    kernel_size: 5
    stride: 1
    weight_filler {
      type: "xavier"
    }
    bias_filler {
      type: "constant"
      value: 0.1
    }
  }
  param: "dec_img_conv3_w"
  param: "dec_img_conv3_b"
}
layers {
  bottom: "ep_split_376"
  top: "ep_inner_product_377"
  name: "inner_product_648"
  type: INNER_PRODUCT
  blobs_lr: 1
  blobs_lr: 2
  weight_decay: 1
  weight_decay: 0
  inner_product_param {
    num_output: 8192
    weight_filler {
      type: "xavier"
    }
    bias_filler {
      type: "constant"
      value: 0.1
    }
  }
  param: "dec_mask_fc1_w"
  param: "dec_mask_fc1_b"
}
layers {
  bottom: "ep_inner_product_377"
  top: "ep_inner_product_377"
  name: "relu_679"
  type: RELU
}
layers {
  bottom: "ep_inner_product_377"
  top: "ep_folding_378"
  name: "folding_710"
  type: FOLDING
  folding_param {
    channels_folded: 128
    height_folded: 8
    width_folded: 8
  }
}
layers {
  bottom: "ep_folding_378"
  top: "ep_upsample_379"
  name: "upsample_741"
  type: UPSAMPLING
  upsampling_param {
    kernel_size: 2
  }
}
layers {
  bottom: "ep_upsample_379"
  top: "ep_conv_5x5_1_380"
  name: "conv_5x5_1_772"
  type: CONVOLUTION
  blobs_lr: 1
  blobs_lr: 2
  weight_decay: 1
  weight_decay: 0
  convolution_param {
    num_output: 64
    pad: 2
    kernel_size: 5
    stride: 1
    weight_filler {
      type: "xavier"
    }
    bias_filler {
      type: "constant"
      value: 0.1
    }
  }
  param: "dec_mask_conv1_w"
  param: "dec_mask_conv1_b"
}
layers {
  bottom: "ep_conv_5x5_1_380"
  top: "ep_conv_5x5_1_380"
  name: "relu_803"
  type: RELU
}
layers {
  bottom: "ep_conv_5x5_1_380"
  top: "ep_upsample_381"
  name: "upsample_834"
  type: UPSAMPLING
  upsampling_param {
    kernel_size: 2
  }
}
layers {
  bottom: "ep_upsample_381"
  top: "ep_conv_5x5_1_382"
  name: "conv_5x5_1_865"
  type: CONVOLUTION
  blobs_lr: 1
  blobs_lr: 2
  weight_decay: 1
  weight_decay: 0
  convolution_param {
    num_output: 32
    pad: 2
    kernel_size: 5
    stride: 1
    weight_filler {
      type: "xavier"
    }
    bias_filler {
      type: "constant"
      value: 0.1
    }
  }
  param: "dec_mask_conv2_w"
  param: "dec_mask_conv2_b"
}
layers {
  bottom: "ep_conv_5x5_1_382"
  top: "ep_conv_5x5_1_382"
  name: "relu_896"
  type: RELU
}
layers {
  bottom: "ep_conv_5x5_1_382"
  top: "ep_upsample_383"
  name: "upsample_927"
  type: UPSAMPLING
  upsampling_param {
    kernel_size: 2
  }
}
layers {
  bottom: "ep_upsample_383"
  top: "ep_t14_conv_5x5_1_829"
  name: "t14_conv_5x5_1_958"
  type: CONVOLUTION
  blobs_lr: 1
  blobs_lr: 2
  weight_decay: 1
  weight_decay: 0
  convolution_param {
    num_output: 1
    pad: 2
    kernel_size: 5
    stride: 1
    weight_filler {
      type: "xavier"
    }
    bias_filler {
      type: "constant"
      value: 0.1
    }
  }
  param: "dec_mask_conv3_w"
  param: "dec_mask_conv3_b"
}
layers {
  bottom: "ep_split_384"
  bottom: "rotations15"
  top: "ep_tensor_product_385"
  name: "tensor_product_29"
  type: TENSOR_PRODUCT
  blobs_lr: 1
  blobs_lr: 2
  weight_decay: 1
  weight_decay: 0
  inner_product_param {
    num_output: 512
    weight_filler {
      type: "xavier"
    }
    bias_filler {
      type: "constant"
      value: 0.1
    }
  }
  param: "tensor_view_w"
  param: "tensor_view_b"
}
layers {
  bottom: "ep_tensor_product_385"
  top: "ep_relu_386"
  name: "relu_60"
  type: RELU
}
layers {
  bottom: "ep_relu_386"
  top: "ep_split_388"
  top: "ep_split_409"
  name: "split_91"
  type: SPLIT
}
layers {
  bottom: "ep_split_387"
  bottom: "ep_split_388"
  top: "ep_concat_389"
  name: "concat_122"
  type: CONCAT
  concat_param {
    concat_dim: 1
  }
}
layers {
  bottom: "ep_concat_389"
  top: "ep_inner_product_390"
  name: "inner_product_153"
  type: INNER_PRODUCT
  blobs_lr: 1
  blobs_lr: 2
  weight_decay: 1
  weight_decay: 0
  inner_product_param {
    num_output: 1024
    weight_filler {
      type: "xavier"
    }
    bias_filler {
      type: "constant"
      value: 0.1
    }
  }
  param: "dec_fc1_w"
  param: "dec_fc1_b"
}
layers {
  bottom: "ep_inner_product_390"
  top: "ep_inner_product_390"
  name: "relu_184"
  type: RELU
}
layers {
  bottom: "ep_inner_product_390"
  top: "ep_inner_product_391"
  name: "inner_product_215"
  type: INNER_PRODUCT
  blobs_lr: 1
  blobs_lr: 2
  weight_decay: 1
  weight_decay: 0
  inner_product_param {
    num_output: 1024
    weight_filler {
      type: "xavier"
    }
    bias_filler {
      type: "constant"
      value: 0.1
    }
  }
  param: "dec_fc2_w"
  param: "dec_fc2_b"
}
layers {
  bottom: "ep_inner_product_391"
  top: "ep_relu_392"
  name: "relu_246"
  type: RELU
}
layers {
  bottom: "ep_relu_392"
  top: "ep_split_393"
  top: "ep_split_401"
  name: "split_277"
  type: SPLIT
}
layers {
  bottom: "ep_split_393"
  top: "ep_inner_product_394"
  name: "inner_product_308"
  type: INNER_PRODUCT
  blobs_lr: 1
  blobs_lr: 2
  weight_decay: 1
  weight_decay: 0
  inner_product_param {
    num_output: 16384
    weight_filler {
      type: "xavier"
    }
    bias_filler {
      type: "constant"
      value: 0.1
    }
  }
  param: "dec_img_fc1_w"
  param: "dec_img_fc1_b"
}
layers {
  bottom: "ep_inner_product_394"
  top: "ep_inner_product_394"
  name: "relu_339"
  type: RELU
}
layers {
  bottom: "ep_inner_product_394"
  top: "ep_folding_395"
  name: "folding_370"
  type: FOLDING
  folding_param {
    channels_folded: 256
    height_folded: 8
    width_folded: 8
  }
}
layers {
  bottom: "ep_folding_395"
  top: "ep_upsample_396"
  name: "upsample_401"
  type: UPSAMPLING
  upsampling_param {
    kernel_size: 2
  }
}
layers {
  bottom: "ep_upsample_396"
  top: "ep_conv_5x5_1_397"
  name: "conv_5x5_1_432"
  type: CONVOLUTION
  blobs_lr: 1
  blobs_lr: 2
  weight_decay: 1
  weight_decay: 0
  convolution_param {
    num_output: 128
    pad: 2
    kernel_size: 5
    stride: 1
    weight_filler {
      type: "xavier"
    }
    bias_filler {
      type: "constant"
      value: 0.1
    }
  }
  param: "dec_img_conv1_w"
  param: "dec_img_conv1_b"
}
layers {
  bottom: "ep_conv_5x5_1_397"
  top: "ep_conv_5x5_1_397"
  name: "relu_463"
  type: RELU
}
layers {
  bottom: "ep_conv_5x5_1_397"
  top: "ep_upsample_398"
  name: "upsample_494"
  type: UPSAMPLING
  upsampling_param {
    kernel_size: 2
  }
}
layers {
  bottom: "ep_upsample_398"
  top: "ep_conv_5x5_1_399"
  name: "conv_5x5_1_525"
  type: CONVOLUTION
  blobs_lr: 1
  blobs_lr: 2
  weight_decay: 1
  weight_decay: 0
  convolution_param {
    num_output: 64
    pad: 2
    kernel_size: 5
    stride: 1
    weight_filler {
      type: "xavier"
    }
    bias_filler {
      type: "constant"
      value: 0.1
    }
  }
  param: "dec_img_conv2_w"
  param: "dec_img_conv2_b"
}
layers {
  bottom: "ep_conv_5x5_1_399"
  top: "ep_conv_5x5_1_399"
  name: "relu_556"
  type: RELU
}
layers {
  bottom: "ep_conv_5x5_1_399"
  top: "ep_upsample_400"
  name: "upsample_587"
  type: UPSAMPLING
  upsampling_param {
    kernel_size: 2
  }
}
layers {
  bottom: "ep_upsample_400"
  top: "ep_t15_conv_5x5_1_799"
  name: "t15_conv_5x5_1_618"
  type: CONVOLUTION
  blobs_lr: 1
  blobs_lr: 2
  weight_decay: 1
  weight_decay: 0
  convolution_param {
    num_output: 3
    pad: 2
    kernel_size: 5
    stride: 1
    weight_filler {
      type: "xavier"
    }
    bias_filler {
      type: "constant"
      value: 0.1
    }
  }
  param: "dec_img_conv3_w"
  param: "dec_img_conv3_b"
}
layers {
  bottom: "ep_split_401"
  top: "ep_inner_product_402"
  name: "inner_product_649"
  type: INNER_PRODUCT
  blobs_lr: 1
  blobs_lr: 2
  weight_decay: 1
  weight_decay: 0
  inner_product_param {
    num_output: 8192
    weight_filler {
      type: "xavier"
    }
    bias_filler {
      type: "constant"
      value: 0.1
    }
  }
  param: "dec_mask_fc1_w"
  param: "dec_mask_fc1_b"
}
layers {
  bottom: "ep_inner_product_402"
  top: "ep_inner_product_402"
  name: "relu_680"
  type: RELU
}
layers {
  bottom: "ep_inner_product_402"
  top: "ep_folding_403"
  name: "folding_711"
  type: FOLDING
  folding_param {
    channels_folded: 128
    height_folded: 8
    width_folded: 8
  }
}
layers {
  bottom: "ep_folding_403"
  top: "ep_upsample_404"
  name: "upsample_742"
  type: UPSAMPLING
  upsampling_param {
    kernel_size: 2
  }
}
layers {
  bottom: "ep_upsample_404"
  top: "ep_conv_5x5_1_405"
  name: "conv_5x5_1_773"
  type: CONVOLUTION
  blobs_lr: 1
  blobs_lr: 2
  weight_decay: 1
  weight_decay: 0
  convolution_param {
    num_output: 64
    pad: 2
    kernel_size: 5
    stride: 1
    weight_filler {
      type: "xavier"
    }
    bias_filler {
      type: "constant"
      value: 0.1
    }
  }
  param: "dec_mask_conv1_w"
  param: "dec_mask_conv1_b"
}
layers {
  bottom: "ep_conv_5x5_1_405"
  top: "ep_conv_5x5_1_405"
  name: "relu_804"
  type: RELU
}
layers {
  bottom: "ep_conv_5x5_1_405"
  top: "ep_upsample_406"
  name: "upsample_835"
  type: UPSAMPLING
  upsampling_param {
    kernel_size: 2
  }
}
layers {
  bottom: "ep_upsample_406"
  top: "ep_conv_5x5_1_407"
  name: "conv_5x5_1_866"
  type: CONVOLUTION
  blobs_lr: 1
  blobs_lr: 2
  weight_decay: 1
  weight_decay: 0
  convolution_param {
    num_output: 32
    pad: 2
    kernel_size: 5
    stride: 1
    weight_filler {
      type: "xavier"
    }
    bias_filler {
      type: "constant"
      value: 0.1
    }
  }
  param: "dec_mask_conv2_w"
  param: "dec_mask_conv2_b"
}
layers {
  bottom: "ep_conv_5x5_1_407"
  top: "ep_conv_5x5_1_407"
  name: "relu_897"
  type: RELU
}
layers {
  bottom: "ep_conv_5x5_1_407"
  top: "ep_upsample_408"
  name: "upsample_928"
  type: UPSAMPLING
  upsampling_param {
    kernel_size: 2
  }
}
layers {
  bottom: "ep_upsample_408"
  top: "ep_t15_conv_5x5_1_830"
  name: "t15_conv_5x5_1_959"
  type: CONVOLUTION
  blobs_lr: 1
  blobs_lr: 2
  weight_decay: 1
  weight_decay: 0
  convolution_param {
    num_output: 1
    pad: 2
    kernel_size: 5
    stride: 1
    weight_filler {
      type: "xavier"
    }
    bias_filler {
      type: "constant"
      value: 0.1
    }
  }
  param: "dec_mask_conv3_w"
  param: "dec_mask_conv3_b"
}
layers {
  bottom: "ep_split_409"
  bottom: "rotations16"
  top: "ep_tensor_product_410"
  name: "tensor_product_30"
  type: TENSOR_PRODUCT
  blobs_lr: 1
  blobs_lr: 2
  weight_decay: 1
  weight_decay: 0
  inner_product_param {
    num_output: 512
    weight_filler {
      type: "xavier"
    }
    bias_filler {
      type: "constant"
      value: 0.1
    }
  }
  param: "tensor_view_w"
  param: "tensor_view_b"
}
layers {
  bottom: "ep_tensor_product_410"
  top: "ep_relu_411"
  name: "relu_61"
  type: RELU
}
layers {
  bottom: "ep_relu_411"
  top: "ep_split_413"
  top: "ep_split_434"
  name: "split_92"
  type: SPLIT
}
layers {
  bottom: "ep_split_412"
  bottom: "ep_split_413"
  top: "ep_concat_414"
  name: "concat_123"
  type: CONCAT
  concat_param {
    concat_dim: 1
  }
}
layers {
  bottom: "ep_concat_414"
  top: "ep_inner_product_415"
  name: "inner_product_154"
  type: INNER_PRODUCT
  blobs_lr: 1
  blobs_lr: 2
  weight_decay: 1
  weight_decay: 0
  inner_product_param {
    num_output: 1024
    weight_filler {
      type: "xavier"
    }
    bias_filler {
      type: "constant"
      value: 0.1
    }
  }
  param: "dec_fc1_w"
  param: "dec_fc1_b"
}
layers {
  bottom: "ep_inner_product_415"
  top: "ep_inner_product_415"
  name: "relu_185"
  type: RELU
}
layers {
  bottom: "ep_inner_product_415"
  top: "ep_inner_product_416"
  name: "inner_product_216"
  type: INNER_PRODUCT
  blobs_lr: 1
  blobs_lr: 2
  weight_decay: 1
  weight_decay: 0
  inner_product_param {
    num_output: 1024
    weight_filler {
      type: "xavier"
    }
    bias_filler {
      type: "constant"
      value: 0.1
    }
  }
  param: "dec_fc2_w"
  param: "dec_fc2_b"
}
layers {
  bottom: "ep_inner_product_416"
  top: "ep_relu_417"
  name: "relu_247"
  type: RELU
}
layers {
  bottom: "ep_relu_417"
  top: "ep_split_418"
  top: "ep_split_426"
  name: "split_278"
  type: SPLIT
}
layers {
  bottom: "ep_split_418"
  top: "ep_inner_product_419"
  name: "inner_product_309"
  type: INNER_PRODUCT
  blobs_lr: 1
  blobs_lr: 2
  weight_decay: 1
  weight_decay: 0
  inner_product_param {
    num_output: 16384
    weight_filler {
      type: "xavier"
    }
    bias_filler {
      type: "constant"
      value: 0.1
    }
  }
  param: "dec_img_fc1_w"
  param: "dec_img_fc1_b"
}
layers {
  bottom: "ep_inner_product_419"
  top: "ep_inner_product_419"
  name: "relu_340"
  type: RELU
}
layers {
  bottom: "ep_inner_product_419"
  top: "ep_folding_420"
  name: "folding_371"
  type: FOLDING
  folding_param {
    channels_folded: 256
    height_folded: 8
    width_folded: 8
  }
}
layers {
  bottom: "ep_folding_420"
  top: "ep_upsample_421"
  name: "upsample_402"
  type: UPSAMPLING
  upsampling_param {
    kernel_size: 2
  }
}
layers {
  bottom: "ep_upsample_421"
  top: "ep_conv_5x5_1_422"
  name: "conv_5x5_1_433"
  type: CONVOLUTION
  blobs_lr: 1
  blobs_lr: 2
  weight_decay: 1
  weight_decay: 0
  convolution_param {
    num_output: 128
    pad: 2
    kernel_size: 5
    stride: 1
    weight_filler {
      type: "xavier"
    }
    bias_filler {
      type: "constant"
      value: 0.1
    }
  }
  param: "dec_img_conv1_w"
  param: "dec_img_conv1_b"
}
layers {
  bottom: "ep_conv_5x5_1_422"
  top: "ep_conv_5x5_1_422"
  name: "relu_464"
  type: RELU
}
layers {
  bottom: "ep_conv_5x5_1_422"
  top: "ep_upsample_423"
  name: "upsample_495"
  type: UPSAMPLING
  upsampling_param {
    kernel_size: 2
  }
}
layers {
  bottom: "ep_upsample_423"
  top: "ep_conv_5x5_1_424"
  name: "conv_5x5_1_526"
  type: CONVOLUTION
  blobs_lr: 1
  blobs_lr: 2
  weight_decay: 1
  weight_decay: 0
  convolution_param {
    num_output: 64
    pad: 2
    kernel_size: 5
    stride: 1
    weight_filler {
      type: "xavier"
    }
    bias_filler {
      type: "constant"
      value: 0.1
    }
  }
  param: "dec_img_conv2_w"
  param: "dec_img_conv2_b"
}
layers {
  bottom: "ep_conv_5x5_1_424"
  top: "ep_conv_5x5_1_424"
  name: "relu_557"
  type: RELU
}
layers {
  bottom: "ep_conv_5x5_1_424"
  top: "ep_upsample_425"
  name: "upsample_588"
  type: UPSAMPLING
  upsampling_param {
    kernel_size: 2
  }
}
layers {
  bottom: "ep_upsample_425"
  top: "ep_t16_conv_5x5_1_800"
  name: "t16_conv_5x5_1_619"
  type: CONVOLUTION
  blobs_lr: 1
  blobs_lr: 2
  weight_decay: 1
  weight_decay: 0
  convolution_param {
    num_output: 3
    pad: 2
    kernel_size: 5
    stride: 1
    weight_filler {
      type: "xavier"
    }
    bias_filler {
      type: "constant"
      value: 0.1
    }
  }
  param: "dec_img_conv3_w"
  param: "dec_img_conv3_b"
}
layers {
  bottom: "ep_split_426"
  top: "ep_inner_product_427"
  name: "inner_product_650"
  type: INNER_PRODUCT
  blobs_lr: 1
  blobs_lr: 2
  weight_decay: 1
  weight_decay: 0
  inner_product_param {
    num_output: 8192
    weight_filler {
      type: "xavier"
    }
    bias_filler {
      type: "constant"
      value: 0.1
    }
  }
  param: "dec_mask_fc1_w"
  param: "dec_mask_fc1_b"
}
layers {
  bottom: "ep_inner_product_427"
  top: "ep_inner_product_427"
  name: "relu_681"
  type: RELU
}
layers {
  bottom: "ep_inner_product_427"
  top: "ep_folding_428"
  name: "folding_712"
  type: FOLDING
  folding_param {
    channels_folded: 128
    height_folded: 8
    width_folded: 8
  }
}
layers {
  bottom: "ep_folding_428"
  top: "ep_upsample_429"
  name: "upsample_743"
  type: UPSAMPLING
  upsampling_param {
    kernel_size: 2
  }
}
layers {
  bottom: "ep_upsample_429"
  top: "ep_conv_5x5_1_430"
  name: "conv_5x5_1_774"
  type: CONVOLUTION
  blobs_lr: 1
  blobs_lr: 2
  weight_decay: 1
  weight_decay: 0
  convolution_param {
    num_output: 64
    pad: 2
    kernel_size: 5
    stride: 1
    weight_filler {
      type: "xavier"
    }
    bias_filler {
      type: "constant"
      value: 0.1
    }
  }
  param: "dec_mask_conv1_w"
  param: "dec_mask_conv1_b"
}
layers {
  bottom: "ep_conv_5x5_1_430"
  top: "ep_conv_5x5_1_430"
  name: "relu_805"
  type: RELU
}
layers {
  bottom: "ep_conv_5x5_1_430"
  top: "ep_upsample_431"
  name: "upsample_836"
  type: UPSAMPLING
  upsampling_param {
    kernel_size: 2
  }
}
layers {
  bottom: "ep_upsample_431"
  top: "ep_conv_5x5_1_432"
  name: "conv_5x5_1_867"
  type: CONVOLUTION
  blobs_lr: 1
  blobs_lr: 2
  weight_decay: 1
  weight_decay: 0
  convolution_param {
    num_output: 32
    pad: 2
    kernel_size: 5
    stride: 1
    weight_filler {
      type: "xavier"
    }
    bias_filler {
      type: "constant"
      value: 0.1
    }
  }
  param: "dec_mask_conv2_w"
  param: "dec_mask_conv2_b"
}
layers {
  bottom: "ep_conv_5x5_1_432"
  top: "ep_conv_5x5_1_432"
  name: "relu_898"
  type: RELU
}
layers {
  bottom: "ep_conv_5x5_1_432"
  top: "ep_upsample_433"
  name: "upsample_929"
  type: UPSAMPLING
  upsampling_param {
    kernel_size: 2
  }
}
layers {
  bottom: "ep_upsample_433"
  top: "ep_t16_conv_5x5_1_831"
  name: "t16_conv_5x5_1_960"
  type: CONVOLUTION
  blobs_lr: 1
  blobs_lr: 2
  weight_decay: 1
  weight_decay: 0
  convolution_param {
    num_output: 1
    pad: 2
    kernel_size: 5
    stride: 1
    weight_filler {
      type: "xavier"
    }
    bias_filler {
      type: "constant"
      value: 0.1
    }
  }
  param: "dec_mask_conv3_w"
  param: "dec_mask_conv3_b"
}
layers {
  bottom: "ep_split_434"
  bottom: "rotations17"
  top: "ep_tensor_product_435"
  name: "tensor_product_31"
  type: TENSOR_PRODUCT
  blobs_lr: 1
  blobs_lr: 2
  weight_decay: 1
  weight_decay: 0
  inner_product_param {
    num_output: 512
    weight_filler {
      type: "xavier"
    }
    bias_filler {
      type: "constant"
      value: 0.1
    }
  }
  param: "tensor_view_w"
  param: "tensor_view_b"
}
layers {
  bottom: "ep_tensor_product_435"
  top: "ep_relu_436"
  name: "relu_62"
  type: RELU
}
layers {
  bottom: "ep_relu_436"
  top: "ep_split_438"
  top: "ep_split_459"
  name: "split_93"
  type: SPLIT
}
layers {
  bottom: "ep_split_437"
  bottom: "ep_split_438"
  top: "ep_concat_439"
  name: "concat_124"
  type: CONCAT
  concat_param {
    concat_dim: 1
  }
}
layers {
  bottom: "ep_concat_439"
  top: "ep_inner_product_440"
  name: "inner_product_155"
  type: INNER_PRODUCT
  blobs_lr: 1
  blobs_lr: 2
  weight_decay: 1
  weight_decay: 0
  inner_product_param {
    num_output: 1024
    weight_filler {
      type: "xavier"
    }
    bias_filler {
      type: "constant"
      value: 0.1
    }
  }
  param: "dec_fc1_w"
  param: "dec_fc1_b"
}
layers {
  bottom: "ep_inner_product_440"
  top: "ep_inner_product_440"
  name: "relu_186"
  type: RELU
}
layers {
  bottom: "ep_inner_product_440"
  top: "ep_inner_product_441"
  name: "inner_product_217"
  type: INNER_PRODUCT
  blobs_lr: 1
  blobs_lr: 2
  weight_decay: 1
  weight_decay: 0
  inner_product_param {
    num_output: 1024
    weight_filler {
      type: "xavier"
    }
    bias_filler {
      type: "constant"
      value: 0.1
    }
  }
  param: "dec_fc2_w"
  param: "dec_fc2_b"
}
layers {
  bottom: "ep_inner_product_441"
  top: "ep_relu_442"
  name: "relu_248"
  type: RELU
}
layers {
  bottom: "ep_relu_442"
  top: "ep_split_443"
  top: "ep_split_451"
  name: "split_279"
  type: SPLIT
}
layers {
  bottom: "ep_split_443"
  top: "ep_inner_product_444"
  name: "inner_product_310"
  type: INNER_PRODUCT
  blobs_lr: 1
  blobs_lr: 2
  weight_decay: 1
  weight_decay: 0
  inner_product_param {
    num_output: 16384
    weight_filler {
      type: "xavier"
    }
    bias_filler {
      type: "constant"
      value: 0.1
    }
  }
  param: "dec_img_fc1_w"
  param: "dec_img_fc1_b"
}
layers {
  bottom: "ep_inner_product_444"
  top: "ep_inner_product_444"
  name: "relu_341"
  type: RELU
}
layers {
  bottom: "ep_inner_product_444"
  top: "ep_folding_445"
  name: "folding_372"
  type: FOLDING
  folding_param {
    channels_folded: 256
    height_folded: 8
    width_folded: 8
  }
}
layers {
  bottom: "ep_folding_445"
  top: "ep_upsample_446"
  name: "upsample_403"
  type: UPSAMPLING
  upsampling_param {
    kernel_size: 2
  }
}
layers {
  bottom: "ep_upsample_446"
  top: "ep_conv_5x5_1_447"
  name: "conv_5x5_1_434"
  type: CONVOLUTION
  blobs_lr: 1
  blobs_lr: 2
  weight_decay: 1
  weight_decay: 0
  convolution_param {
    num_output: 128
    pad: 2
    kernel_size: 5
    stride: 1
    weight_filler {
      type: "xavier"
    }
    bias_filler {
      type: "constant"
      value: 0.1
    }
  }
  param: "dec_img_conv1_w"
  param: "dec_img_conv1_b"
}
layers {
  bottom: "ep_conv_5x5_1_447"
  top: "ep_conv_5x5_1_447"
  name: "relu_465"
  type: RELU
}
layers {
  bottom: "ep_conv_5x5_1_447"
  top: "ep_upsample_448"
  name: "upsample_496"
  type: UPSAMPLING
  upsampling_param {
    kernel_size: 2
  }
}
layers {
  bottom: "ep_upsample_448"
  top: "ep_conv_5x5_1_449"
  name: "conv_5x5_1_527"
  type: CONVOLUTION
  blobs_lr: 1
  blobs_lr: 2
  weight_decay: 1
  weight_decay: 0
  convolution_param {
    num_output: 64
    pad: 2
    kernel_size: 5
    stride: 1
    weight_filler {
      type: "xavier"
    }
    bias_filler {
      type: "constant"
      value: 0.1
    }
  }
  param: "dec_img_conv2_w"
  param: "dec_img_conv2_b"
}
layers {
  bottom: "ep_conv_5x5_1_449"
  top: "ep_conv_5x5_1_449"
  name: "relu_558"
  type: RELU
}
layers {
  bottom: "ep_conv_5x5_1_449"
  top: "ep_upsample_450"
  name: "upsample_589"
  type: UPSAMPLING
  upsampling_param {
    kernel_size: 2
  }
}
layers {
  bottom: "ep_upsample_450"
  top: "ep_t17_conv_5x5_1_801"
  name: "t17_conv_5x5_1_620"
  type: CONVOLUTION
  blobs_lr: 1
  blobs_lr: 2
  weight_decay: 1
  weight_decay: 0
  convolution_param {
    num_output: 3
    pad: 2
    kernel_size: 5
    stride: 1
    weight_filler {
      type: "xavier"
    }
    bias_filler {
      type: "constant"
      value: 0.1
    }
  }
  param: "dec_img_conv3_w"
  param: "dec_img_conv3_b"
}
layers {
  bottom: "ep_split_451"
  top: "ep_inner_product_452"
  name: "inner_product_651"
  type: INNER_PRODUCT
  blobs_lr: 1
  blobs_lr: 2
  weight_decay: 1
  weight_decay: 0
  inner_product_param {
    num_output: 8192
    weight_filler {
      type: "xavier"
    }
    bias_filler {
      type: "constant"
      value: 0.1
    }
  }
  param: "dec_mask_fc1_w"
  param: "dec_mask_fc1_b"
}
layers {
  bottom: "ep_inner_product_452"
  top: "ep_inner_product_452"
  name: "relu_682"
  type: RELU
}
layers {
  bottom: "ep_inner_product_452"
  top: "ep_folding_453"
  name: "folding_713"
  type: FOLDING
  folding_param {
    channels_folded: 128
    height_folded: 8
    width_folded: 8
  }
}
layers {
  bottom: "ep_folding_453"
  top: "ep_upsample_454"
  name: "upsample_744"
  type: UPSAMPLING
  upsampling_param {
    kernel_size: 2
  }
}
layers {
  bottom: "ep_upsample_454"
  top: "ep_conv_5x5_1_455"
  name: "conv_5x5_1_775"
  type: CONVOLUTION
  blobs_lr: 1
  blobs_lr: 2
  weight_decay: 1
  weight_decay: 0
  convolution_param {
    num_output: 64
    pad: 2
    kernel_size: 5
    stride: 1
    weight_filler {
      type: "xavier"
    }
    bias_filler {
      type: "constant"
      value: 0.1
    }
  }
  param: "dec_mask_conv1_w"
  param: "dec_mask_conv1_b"
}
layers {
  bottom: "ep_conv_5x5_1_455"
  top: "ep_conv_5x5_1_455"
  name: "relu_806"
  type: RELU
}
layers {
  bottom: "ep_conv_5x5_1_455"
  top: "ep_upsample_456"
  name: "upsample_837"
  type: UPSAMPLING
  upsampling_param {
    kernel_size: 2
  }
}
layers {
  bottom: "ep_upsample_456"
  top: "ep_conv_5x5_1_457"
  name: "conv_5x5_1_868"
  type: CONVOLUTION
  blobs_lr: 1
  blobs_lr: 2
  weight_decay: 1
  weight_decay: 0
  convolution_param {
    num_output: 32
    pad: 2
    kernel_size: 5
    stride: 1
    weight_filler {
      type: "xavier"
    }
    bias_filler {
      type: "constant"
      value: 0.1
    }
  }
  param: "dec_mask_conv2_w"
  param: "dec_mask_conv2_b"
}
layers {
  bottom: "ep_conv_5x5_1_457"
  top: "ep_conv_5x5_1_457"
  name: "relu_899"
  type: RELU
}
layers {
  bottom: "ep_conv_5x5_1_457"
  top: "ep_upsample_458"
  name: "upsample_930"
  type: UPSAMPLING
  upsampling_param {
    kernel_size: 2
  }
}
layers {
  bottom: "ep_upsample_458"
  top: "ep_t17_conv_5x5_1_832"
  name: "t17_conv_5x5_1_961"
  type: CONVOLUTION
  blobs_lr: 1
  blobs_lr: 2
  weight_decay: 1
  weight_decay: 0
  convolution_param {
    num_output: 1
    pad: 2
    kernel_size: 5
    stride: 1
    weight_filler {
      type: "xavier"
    }
    bias_filler {
      type: "constant"
      value: 0.1
    }
  }
  param: "dec_mask_conv3_w"
  param: "dec_mask_conv3_b"
}
layers {
  bottom: "ep_split_459"
  bottom: "rotations18"
  top: "ep_tensor_product_460"
  name: "tensor_product_32"
  type: TENSOR_PRODUCT
  blobs_lr: 1
  blobs_lr: 2
  weight_decay: 1
  weight_decay: 0
  inner_product_param {
    num_output: 512
    weight_filler {
      type: "xavier"
    }
    bias_filler {
      type: "constant"
      value: 0.1
    }
  }
  param: "tensor_view_w"
  param: "tensor_view_b"
}
layers {
  bottom: "ep_tensor_product_460"
  top: "ep_relu_461"
  name: "relu_63"
  type: RELU
}
layers {
  bottom: "ep_relu_461"
  top: "ep_split_463"
  top: "ep_split_484"
  name: "split_94"
  type: SPLIT
}
layers {
  bottom: "ep_split_462"
  bottom: "ep_split_463"
  top: "ep_concat_464"
  name: "concat_125"
  type: CONCAT
  concat_param {
    concat_dim: 1
  }
}
layers {
  bottom: "ep_concat_464"
  top: "ep_inner_product_465"
  name: "inner_product_156"
  type: INNER_PRODUCT
  blobs_lr: 1
  blobs_lr: 2
  weight_decay: 1
  weight_decay: 0
  inner_product_param {
    num_output: 1024
    weight_filler {
      type: "xavier"
    }
    bias_filler {
      type: "constant"
      value: 0.1
    }
  }
  param: "dec_fc1_w"
  param: "dec_fc1_b"
}
layers {
  bottom: "ep_inner_product_465"
  top: "ep_inner_product_465"
  name: "relu_187"
  type: RELU
}
layers {
  bottom: "ep_inner_product_465"
  top: "ep_inner_product_466"
  name: "inner_product_218"
  type: INNER_PRODUCT
  blobs_lr: 1
  blobs_lr: 2
  weight_decay: 1
  weight_decay: 0
  inner_product_param {
    num_output: 1024
    weight_filler {
      type: "xavier"
    }
    bias_filler {
      type: "constant"
      value: 0.1
    }
  }
  param: "dec_fc2_w"
  param: "dec_fc2_b"
}
layers {
  bottom: "ep_inner_product_466"
  top: "ep_relu_467"
  name: "relu_249"
  type: RELU
}
layers {
  bottom: "ep_relu_467"
  top: "ep_split_468"
  top: "ep_split_476"
  name: "split_280"
  type: SPLIT
}
layers {
  bottom: "ep_split_468"
  top: "ep_inner_product_469"
  name: "inner_product_311"
  type: INNER_PRODUCT
  blobs_lr: 1
  blobs_lr: 2
  weight_decay: 1
  weight_decay: 0
  inner_product_param {
    num_output: 16384
    weight_filler {
      type: "xavier"
    }
    bias_filler {
      type: "constant"
      value: 0.1
    }
  }
  param: "dec_img_fc1_w"
  param: "dec_img_fc1_b"
}
layers {
  bottom: "ep_inner_product_469"
  top: "ep_inner_product_469"
  name: "relu_342"
  type: RELU
}
layers {
  bottom: "ep_inner_product_469"
  top: "ep_folding_470"
  name: "folding_373"
  type: FOLDING
  folding_param {
    channels_folded: 256
    height_folded: 8
    width_folded: 8
  }
}
layers {
  bottom: "ep_folding_470"
  top: "ep_upsample_471"
  name: "upsample_404"
  type: UPSAMPLING
  upsampling_param {
    kernel_size: 2
  }
}
layers {
  bottom: "ep_upsample_471"
  top: "ep_conv_5x5_1_472"
  name: "conv_5x5_1_435"
  type: CONVOLUTION
  blobs_lr: 1
  blobs_lr: 2
  weight_decay: 1
  weight_decay: 0
  convolution_param {
    num_output: 128
    pad: 2
    kernel_size: 5
    stride: 1
    weight_filler {
      type: "xavier"
    }
    bias_filler {
      type: "constant"
      value: 0.1
    }
  }
  param: "dec_img_conv1_w"
  param: "dec_img_conv1_b"
}
layers {
  bottom: "ep_conv_5x5_1_472"
  top: "ep_conv_5x5_1_472"
  name: "relu_466"
  type: RELU
}
layers {
  bottom: "ep_conv_5x5_1_472"
  top: "ep_upsample_473"
  name: "upsample_497"
  type: UPSAMPLING
  upsampling_param {
    kernel_size: 2
  }
}
layers {
  bottom: "ep_upsample_473"
  top: "ep_conv_5x5_1_474"
  name: "conv_5x5_1_528"
  type: CONVOLUTION
  blobs_lr: 1
  blobs_lr: 2
  weight_decay: 1
  weight_decay: 0
  convolution_param {
    num_output: 64
    pad: 2
    kernel_size: 5
    stride: 1
    weight_filler {
      type: "xavier"
    }
    bias_filler {
      type: "constant"
      value: 0.1
    }
  }
  param: "dec_img_conv2_w"
  param: "dec_img_conv2_b"
}
layers {
  bottom: "ep_conv_5x5_1_474"
  top: "ep_conv_5x5_1_474"
  name: "relu_559"
  type: RELU
}
layers {
  bottom: "ep_conv_5x5_1_474"
  top: "ep_upsample_475"
  name: "upsample_590"
  type: UPSAMPLING
  upsampling_param {
    kernel_size: 2
  }
}
layers {
  bottom: "ep_upsample_475"
  top: "ep_t18_conv_5x5_1_802"
  name: "t18_conv_5x5_1_621"
  type: CONVOLUTION
  blobs_lr: 1
  blobs_lr: 2
  weight_decay: 1
  weight_decay: 0
  convolution_param {
    num_output: 3
    pad: 2
    kernel_size: 5
    stride: 1
    weight_filler {
      type: "xavier"
    }
    bias_filler {
      type: "constant"
      value: 0.1
    }
  }
  param: "dec_img_conv3_w"
  param: "dec_img_conv3_b"
}
layers {
  bottom: "ep_split_476"
  top: "ep_inner_product_477"
  name: "inner_product_652"
  type: INNER_PRODUCT
  blobs_lr: 1
  blobs_lr: 2
  weight_decay: 1
  weight_decay: 0
  inner_product_param {
    num_output: 8192
    weight_filler {
      type: "xavier"
    }
    bias_filler {
      type: "constant"
      value: 0.1
    }
  }
  param: "dec_mask_fc1_w"
  param: "dec_mask_fc1_b"
}
layers {
  bottom: "ep_inner_product_477"
  top: "ep_inner_product_477"
  name: "relu_683"
  type: RELU
}
layers {
  bottom: "ep_inner_product_477"
  top: "ep_folding_478"
  name: "folding_714"
  type: FOLDING
  folding_param {
    channels_folded: 128
    height_folded: 8
    width_folded: 8
  }
}
layers {
  bottom: "ep_folding_478"
  top: "ep_upsample_479"
  name: "upsample_745"
  type: UPSAMPLING
  upsampling_param {
    kernel_size: 2
  }
}
layers {
  bottom: "ep_upsample_479"
  top: "ep_conv_5x5_1_480"
  name: "conv_5x5_1_776"
  type: CONVOLUTION
  blobs_lr: 1
  blobs_lr: 2
  weight_decay: 1
  weight_decay: 0
  convolution_param {
    num_output: 64
    pad: 2
    kernel_size: 5
    stride: 1
    weight_filler {
      type: "xavier"
    }
    bias_filler {
      type: "constant"
      value: 0.1
    }
  }
  param: "dec_mask_conv1_w"
  param: "dec_mask_conv1_b"
}
layers {
  bottom: "ep_conv_5x5_1_480"
  top: "ep_conv_5x5_1_480"
  name: "relu_807"
  type: RELU
}
layers {
  bottom: "ep_conv_5x5_1_480"
  top: "ep_upsample_481"
  name: "upsample_838"
  type: UPSAMPLING
  upsampling_param {
    kernel_size: 2
  }
}
layers {
  bottom: "ep_upsample_481"
  top: "ep_conv_5x5_1_482"
  name: "conv_5x5_1_869"
  type: CONVOLUTION
  blobs_lr: 1
  blobs_lr: 2
  weight_decay: 1
  weight_decay: 0
  convolution_param {
    num_output: 32
    pad: 2
    kernel_size: 5
    stride: 1
    weight_filler {
      type: "xavier"
    }
    bias_filler {
      type: "constant"
      value: 0.1
    }
  }
  param: "dec_mask_conv2_w"
  param: "dec_mask_conv2_b"
}
layers {
  bottom: "ep_conv_5x5_1_482"
  top: "ep_conv_5x5_1_482"
  name: "relu_900"
  type: RELU
}
layers {
  bottom: "ep_conv_5x5_1_482"
  top: "ep_upsample_483"
  name: "upsample_931"
  type: UPSAMPLING
  upsampling_param {
    kernel_size: 2
  }
}
layers {
  bottom: "ep_upsample_483"
  top: "ep_t18_conv_5x5_1_833"
  name: "t18_conv_5x5_1_962"
  type: CONVOLUTION
  blobs_lr: 1
  blobs_lr: 2
  weight_decay: 1
  weight_decay: 0
  convolution_param {
    num_output: 1
    pad: 2
    kernel_size: 5
    stride: 1
    weight_filler {
      type: "xavier"
    }
    bias_filler {
      type: "constant"
      value: 0.1
    }
  }
  param: "dec_mask_conv3_w"
  param: "dec_mask_conv3_b"
}
layers {
  bottom: "ep_split_484"
  bottom: "rotations19"
  top: "ep_tensor_product_485"
  name: "tensor_product_33"
  type: TENSOR_PRODUCT
  blobs_lr: 1
  blobs_lr: 2
  weight_decay: 1
  weight_decay: 0
  inner_product_param {
    num_output: 512
    weight_filler {
      type: "xavier"
    }
    bias_filler {
      type: "constant"
      value: 0.1
    }
  }
  param: "tensor_view_w"
  param: "tensor_view_b"
}
layers {
  bottom: "ep_tensor_product_485"
  top: "ep_relu_486"
  name: "relu_64"
  type: RELU
}
layers {
  bottom: "ep_relu_486"
  top: "ep_split_488"
  top: "ep_split_509"
  name: "split_95"
  type: SPLIT
}
layers {
  bottom: "ep_split_487"
  bottom: "ep_split_488"
  top: "ep_concat_489"
  name: "concat_126"
  type: CONCAT
  concat_param {
    concat_dim: 1
  }
}
layers {
  bottom: "ep_concat_489"
  top: "ep_inner_product_490"
  name: "inner_product_157"
  type: INNER_PRODUCT
  blobs_lr: 1
  blobs_lr: 2
  weight_decay: 1
  weight_decay: 0
  inner_product_param {
    num_output: 1024
    weight_filler {
      type: "xavier"
    }
    bias_filler {
      type: "constant"
      value: 0.1
    }
  }
  param: "dec_fc1_w"
  param: "dec_fc1_b"
}
layers {
  bottom: "ep_inner_product_490"
  top: "ep_inner_product_490"
  name: "relu_188"
  type: RELU
}
layers {
  bottom: "ep_inner_product_490"
  top: "ep_inner_product_491"
  name: "inner_product_219"
  type: INNER_PRODUCT
  blobs_lr: 1
  blobs_lr: 2
  weight_decay: 1
  weight_decay: 0
  inner_product_param {
    num_output: 1024
    weight_filler {
      type: "xavier"
    }
    bias_filler {
      type: "constant"
      value: 0.1
    }
  }
  param: "dec_fc2_w"
  param: "dec_fc2_b"
}
layers {
  bottom: "ep_inner_product_491"
  top: "ep_relu_492"
  name: "relu_250"
  type: RELU
}
layers {
  bottom: "ep_relu_492"
  top: "ep_split_493"
  top: "ep_split_501"
  name: "split_281"
  type: SPLIT
}
layers {
  bottom: "ep_split_493"
  top: "ep_inner_product_494"
  name: "inner_product_312"
  type: INNER_PRODUCT
  blobs_lr: 1
  blobs_lr: 2
  weight_decay: 1
  weight_decay: 0
  inner_product_param {
    num_output: 16384
    weight_filler {
      type: "xavier"
    }
    bias_filler {
      type: "constant"
      value: 0.1
    }
  }
  param: "dec_img_fc1_w"
  param: "dec_img_fc1_b"
}
layers {
  bottom: "ep_inner_product_494"
  top: "ep_inner_product_494"
  name: "relu_343"
  type: RELU
}
layers {
  bottom: "ep_inner_product_494"
  top: "ep_folding_495"
  name: "folding_374"
  type: FOLDING
  folding_param {
    channels_folded: 256
    height_folded: 8
    width_folded: 8
  }
}
layers {
  bottom: "ep_folding_495"
  top: "ep_upsample_496"
  name: "upsample_405"
  type: UPSAMPLING
  upsampling_param {
    kernel_size: 2
  }
}
layers {
  bottom: "ep_upsample_496"
  top: "ep_conv_5x5_1_497"
  name: "conv_5x5_1_436"
  type: CONVOLUTION
  blobs_lr: 1
  blobs_lr: 2
  weight_decay: 1
  weight_decay: 0
  convolution_param {
    num_output: 128
    pad: 2
    kernel_size: 5
    stride: 1
    weight_filler {
      type: "xavier"
    }
    bias_filler {
      type: "constant"
      value: 0.1
    }
  }
  param: "dec_img_conv1_w"
  param: "dec_img_conv1_b"
}
layers {
  bottom: "ep_conv_5x5_1_497"
  top: "ep_conv_5x5_1_497"
  name: "relu_467"
  type: RELU
}
layers {
  bottom: "ep_conv_5x5_1_497"
  top: "ep_upsample_498"
  name: "upsample_498"
  type: UPSAMPLING
  upsampling_param {
    kernel_size: 2
  }
}
layers {
  bottom: "ep_upsample_498"
  top: "ep_conv_5x5_1_499"
  name: "conv_5x5_1_529"
  type: CONVOLUTION
  blobs_lr: 1
  blobs_lr: 2
  weight_decay: 1
  weight_decay: 0
  convolution_param {
    num_output: 64
    pad: 2
    kernel_size: 5
    stride: 1
    weight_filler {
      type: "xavier"
    }
    bias_filler {
      type: "constant"
      value: 0.1
    }
  }
  param: "dec_img_conv2_w"
  param: "dec_img_conv2_b"
}
layers {
  bottom: "ep_conv_5x5_1_499"
  top: "ep_conv_5x5_1_499"
  name: "relu_560"
  type: RELU
}
layers {
  bottom: "ep_conv_5x5_1_499"
  top: "ep_upsample_500"
  name: "upsample_591"
  type: UPSAMPLING
  upsampling_param {
    kernel_size: 2
  }
}
layers {
  bottom: "ep_upsample_500"
  top: "ep_t19_conv_5x5_1_803"
  name: "t19_conv_5x5_1_622"
  type: CONVOLUTION
  blobs_lr: 1
  blobs_lr: 2
  weight_decay: 1
  weight_decay: 0
  convolution_param {
    num_output: 3
    pad: 2
    kernel_size: 5
    stride: 1
    weight_filler {
      type: "xavier"
    }
    bias_filler {
      type: "constant"
      value: 0.1
    }
  }
  param: "dec_img_conv3_w"
  param: "dec_img_conv3_b"
}
layers {
  bottom: "ep_split_501"
  top: "ep_inner_product_502"
  name: "inner_product_653"
  type: INNER_PRODUCT
  blobs_lr: 1
  blobs_lr: 2
  weight_decay: 1
  weight_decay: 0
  inner_product_param {
    num_output: 8192
    weight_filler {
      type: "xavier"
    }
    bias_filler {
      type: "constant"
      value: 0.1
    }
  }
  param: "dec_mask_fc1_w"
  param: "dec_mask_fc1_b"
}
layers {
  bottom: "ep_inner_product_502"
  top: "ep_inner_product_502"
  name: "relu_684"
  type: RELU
}
layers {
  bottom: "ep_inner_product_502"
  top: "ep_folding_503"
  name: "folding_715"
  type: FOLDING
  folding_param {
    channels_folded: 128
    height_folded: 8
    width_folded: 8
  }
}
layers {
  bottom: "ep_folding_503"
  top: "ep_upsample_504"
  name: "upsample_746"
  type: UPSAMPLING
  upsampling_param {
    kernel_size: 2
  }
}
layers {
  bottom: "ep_upsample_504"
  top: "ep_conv_5x5_1_505"
  name: "conv_5x5_1_777"
  type: CONVOLUTION
  blobs_lr: 1
  blobs_lr: 2
  weight_decay: 1
  weight_decay: 0
  convolution_param {
    num_output: 64
    pad: 2
    kernel_size: 5
    stride: 1
    weight_filler {
      type: "xavier"
    }
    bias_filler {
      type: "constant"
      value: 0.1
    }
  }
  param: "dec_mask_conv1_w"
  param: "dec_mask_conv1_b"
}
layers {
  bottom: "ep_conv_5x5_1_505"
  top: "ep_conv_5x5_1_505"
  name: "relu_808"
  type: RELU
}
layers {
  bottom: "ep_conv_5x5_1_505"
  top: "ep_upsample_506"
  name: "upsample_839"
  type: UPSAMPLING
  upsampling_param {
    kernel_size: 2
  }
}
layers {
  bottom: "ep_upsample_506"
  top: "ep_conv_5x5_1_507"
  name: "conv_5x5_1_870"
  type: CONVOLUTION
  blobs_lr: 1
  blobs_lr: 2
  weight_decay: 1
  weight_decay: 0
  convolution_param {
    num_output: 32
    pad: 2
    kernel_size: 5
    stride: 1
    weight_filler {
      type: "xavier"
    }
    bias_filler {
      type: "constant"
      value: 0.1
    }
  }
  param: "dec_mask_conv2_w"
  param: "dec_mask_conv2_b"
}
layers {
  bottom: "ep_conv_5x5_1_507"
  top: "ep_conv_5x5_1_507"
  name: "relu_901"
  type: RELU
}
layers {
  bottom: "ep_conv_5x5_1_507"
  top: "ep_upsample_508"
  name: "upsample_932"
  type: UPSAMPLING
  upsampling_param {
    kernel_size: 2
  }
}
layers {
  bottom: "ep_upsample_508"
  top: "ep_t19_conv_5x5_1_834"
  name: "t19_conv_5x5_1_963"
  type: CONVOLUTION
  blobs_lr: 1
  blobs_lr: 2
  weight_decay: 1
  weight_decay: 0
  convolution_param {
    num_output: 1
    pad: 2
    kernel_size: 5
    stride: 1
    weight_filler {
      type: "xavier"
    }
    bias_filler {
      type: "constant"
      value: 0.1
    }
  }
  param: "dec_mask_conv3_w"
  param: "dec_mask_conv3_b"
}
layers {
  bottom: "ep_split_509"
  bottom: "rotations20"
  top: "ep_tensor_product_510"
  name: "tensor_product_34"
  type: TENSOR_PRODUCT
  blobs_lr: 1
  blobs_lr: 2
  weight_decay: 1
  weight_decay: 0
  inner_product_param {
    num_output: 512
    weight_filler {
      type: "xavier"
    }
    bias_filler {
      type: "constant"
      value: 0.1
    }
  }
  param: "tensor_view_w"
  param: "tensor_view_b"
}
layers {
  bottom: "ep_tensor_product_510"
  top: "ep_relu_511"
  name: "relu_65"
  type: RELU
}
layers {
  bottom: "ep_relu_511"
  top: "ep_split_513"
  top: "ep_split_534"
  name: "split_96"
  type: SPLIT
}
layers {
  bottom: "ep_split_512"
  bottom: "ep_split_513"
  top: "ep_concat_514"
  name: "concat_127"
  type: CONCAT
  concat_param {
    concat_dim: 1
  }
}
layers {
  bottom: "ep_concat_514"
  top: "ep_inner_product_515"
  name: "inner_product_158"
  type: INNER_PRODUCT
  blobs_lr: 1
  blobs_lr: 2
  weight_decay: 1
  weight_decay: 0
  inner_product_param {
    num_output: 1024
    weight_filler {
      type: "xavier"
    }
    bias_filler {
      type: "constant"
      value: 0.1
    }
  }
  param: "dec_fc1_w"
  param: "dec_fc1_b"
}
layers {
  bottom: "ep_inner_product_515"
  top: "ep_inner_product_515"
  name: "relu_189"
  type: RELU
}
layers {
  bottom: "ep_inner_product_515"
  top: "ep_inner_product_516"
  name: "inner_product_220"
  type: INNER_PRODUCT
  blobs_lr: 1
  blobs_lr: 2
  weight_decay: 1
  weight_decay: 0
  inner_product_param {
    num_output: 1024
    weight_filler {
      type: "xavier"
    }
    bias_filler {
      type: "constant"
      value: 0.1
    }
  }
  param: "dec_fc2_w"
  param: "dec_fc2_b"
}
layers {
  bottom: "ep_inner_product_516"
  top: "ep_relu_517"
  name: "relu_251"
  type: RELU
}
layers {
  bottom: "ep_relu_517"
  top: "ep_split_518"
  top: "ep_split_526"
  name: "split_282"
  type: SPLIT
}
layers {
  bottom: "ep_split_518"
  top: "ep_inner_product_519"
  name: "inner_product_313"
  type: INNER_PRODUCT
  blobs_lr: 1
  blobs_lr: 2
  weight_decay: 1
  weight_decay: 0
  inner_product_param {
    num_output: 16384
    weight_filler {
      type: "xavier"
    }
    bias_filler {
      type: "constant"
      value: 0.1
    }
  }
  param: "dec_img_fc1_w"
  param: "dec_img_fc1_b"
}
layers {
  bottom: "ep_inner_product_519"
  top: "ep_inner_product_519"
  name: "relu_344"
  type: RELU
}
layers {
  bottom: "ep_inner_product_519"
  top: "ep_folding_520"
  name: "folding_375"
  type: FOLDING
  folding_param {
    channels_folded: 256
    height_folded: 8
    width_folded: 8
  }
}
layers {
  bottom: "ep_folding_520"
  top: "ep_upsample_521"
  name: "upsample_406"
  type: UPSAMPLING
  upsampling_param {
    kernel_size: 2
  }
}
layers {
  bottom: "ep_upsample_521"
  top: "ep_conv_5x5_1_522"
  name: "conv_5x5_1_437"
  type: CONVOLUTION
  blobs_lr: 1
  blobs_lr: 2
  weight_decay: 1
…
      type: "xavier"
    }
    bias_filler {
      type: "constant"
      value: 0.1
    }
  }
  param: "dec_mask_fc1_w"
  param: "dec_mask_fc1_b"
}
layers {
  bottom: "ep_inner_product_627"
  top: "ep_inner_product_627"
  name: "relu_689"
  type: RELU
}
layers {
  bottom: "ep_inner_product_627"
  top: "ep_folding_628"
  name: "folding_720"
  type: FOLDING
  folding_param {
    channels_folded: 128
    height_folded: 8
    width_folded: 8
  }
}
layers {
  bottom: "ep_folding_628"
  top: "ep_upsample_629"
  name: "upsample_751"
  type: UPSAMPLING
  upsampling_param {
    kernel_size: 2
  }
}
layers {
  bottom: "ep_upsample_629"
  top: "ep_conv_5x5_1_630"
  name: "conv_5x5_1_782"
  type: CONVOLUTION
  blobs_lr: 1
  blobs_lr: 2
  weight_decay: 1
  weight_decay: 0
  convolution_param {
    num_output: 64
    pad: 2
    kernel_size: 5
    stride: 1
    weight_filler {
      type: "xavier"
    }
    bias_filler {
      type: "constant"
      value: 0.1
    }
  }
  param: "dec_mask_conv1_w"
  param: "dec_mask_conv1_b"
}
layers {
  bottom: "ep_conv_5x5_1_630"
  top: "ep_conv_5x5_1_630"
  name: "relu_813"
  type: RELU
}
layers {
  bottom: "ep_conv_5x5_1_630"
  top: "ep_upsample_631"
  name: "upsample_844"
  type: UPSAMPLING
  upsampling_param {
    kernel_size: 2
  }
}
layers {
  bottom: "ep_upsample_631"
  top: "ep_conv_5x5_1_632"
  name: "conv_5x5_1_875"
  type: CONVOLUTION
  blobs_lr: 1
  blobs_lr: 2
  weight_decay: 1
  weight_decay: 0
  convolution_param {
    num_output: 32
    pad: 2
    kernel_size: 5
    stride: 1
    weight_filler {
      type: "xavier"
    }
    bias_filler {
      type: "constant"
      value: 0.1
    }
  }
  param: "dec_mask_conv2_w"
  param: "dec_mask_conv2_b"
}
layers {
  bottom: "ep_conv_5x5_1_632"
  top: "ep_conv_5x5_1_632"
  name: "relu_906"
  type: RELU
}
layers {
  bottom: "ep_conv_5x5_1_632"
  top: "ep_upsample_633"
  name: "upsample_937"
  type: UPSAMPLING
  upsampling_param {
    kernel_size: 2
  }
}
layers {
  bottom: "ep_upsample_633"
  top: "ep_t24_conv_5x5_1_839"
  name: "t24_conv_5x5_1_968"
  type: CONVOLUTION
  blobs_lr: 1
  blobs_lr: 2
  weight_decay: 1
  weight_decay: 0
  convolution_param {
    num_output: 1
    pad: 2
    kernel_size: 5
    stride: 1
    weight_filler {
      type: "xavier"
    }
    bias_filler {
      type: "constant"
      value: 0.1
    }
  }
  param: "dec_mask_conv3_w"
  param: "dec_mask_conv3_b"
}
layers {
  bottom: "ep_split_634"
  bottom: "rotations25"
  top: "ep_tensor_product_635"
  name: "tensor_product_39"
  type: TENSOR_PRODUCT
  blobs_lr: 1
  blobs_lr: 2
  weight_decay: 1
  weight_decay: 0
  inner_product_param {
    num_output: 512
    weight_filler {
      type: "xavier"
    }
    bias_filler {
      type: "constant"
      value: 0.1
    }
  }
  param: "tensor_view_w"
  param: "tensor_view_b"
}
layers {
  bottom: "ep_tensor_product_635"
  top: "ep_relu_636"
  name: "relu_70"
  type: RELU
}
layers {
  bottom: "ep_relu_636"
  top: "ep_split_638"
  top: "ep_split_659"
  name: "split_101"
  type: SPLIT
}
layers {
  bottom: "ep_split_637"
  bottom: "ep_split_638"
  top: "ep_concat_639"
  name: "concat_132"
  type: CONCAT
  concat_param {
    concat_dim: 1
  }
}
layers {
  bottom: "ep_concat_639"
  top: "ep_inner_product_640"
  name: "inner_product_163"
  type: INNER_PRODUCT
  blobs_lr: 1
  blobs_lr: 2
  weight_decay: 1
  weight_decay: 0
  inner_product_param {
    num_output: 1024
    weight_filler {
      type: "xavier"
    }
    bias_filler {
      type: "constant"
      value: 0.1
    }
  }
  param: "dec_fc1_w"
  param: "dec_fc1_b"
}
layers {
  bottom: "ep_inner_product_640"
  top: "ep_inner_product_640"
  name: "relu_194"
  type: RELU
}
layers {
  bottom: "ep_inner_product_640"
  top: "ep_inner_product_641"
  name: "inner_product_225"
  type: INNER_PRODUCT
  blobs_lr: 1
  blobs_lr: 2
  weight_decay: 1
  weight_decay: 0
  inner_product_param {
    num_output: 1024
    weight_filler {
      type: "xavier"
    }
    bias_filler {
      type: "constant"
      value: 0.1
    }
  }
  param: "dec_fc2_w"
  param: "dec_fc2_b"
}
layers {
  bottom: "ep_inner_product_641"
  top: "ep_relu_642"
  name: "relu_256"
  type: RELU
}
layers {
  bottom: "ep_relu_642"
  top: "ep_split_643"
  top: "ep_split_651"
  name: "split_287"
  type: SPLIT
}
layers {
  bottom: "ep_split_643"
  top: "ep_inner_product_644"
  name: "inner_product_318"
  type: INNER_PRODUCT
  blobs_lr: 1
  blobs_lr: 2
  weight_decay: 1
  weight_decay: 0
  inner_product_param {
    num_output: 16384
    weight_filler {
      type: "xavier"
    }
    bias_filler {
      type: "constant"
      value: 0.1
    }
  }
  param: "dec_img_fc1_w"
  param: "dec_img_fc1_b"
}
layers {
  bottom: "ep_inner_product_644"
  top: "ep_inner_product_644"
  name: "relu_349"
  type: RELU
}
layers {
  bottom: "ep_inner_product_644"
  top: "ep_folding_645"
  name: "folding_380"
  type: FOLDING
  folding_param {
    channels_folded: 256
    height_folded: 8
    width_folded: 8
  }
}
layers {
  bottom: "ep_folding_645"
  top: "ep_upsample_646"
  name: "upsample_411"
  type: UPSAMPLING
  upsampling_param {
    kernel_size: 2
  }
}
layers {
  bottom: "ep_upsample_646"
  top: "ep_conv_5x5_1_647"
  name: "conv_5x5_1_442"
  type: CONVOLUTION
  blobs_lr: 1
  blobs_lr: 2
  weight_decay: 1
  weight_decay: 0
  convolution_param {
    num_output: 128
    pad: 2
    kernel_size: 5
    stride: 1
    weight_filler {
      type: "xavier"
    }
    bias_filler {
      type: "constant"
      value: 0.1
    }
  }
  param: "dec_img_conv1_w"
  param: "dec_img_conv1_b"
}
layers {
  bottom: "ep_conv_5x5_1_647"
  top: "ep_conv_5x5_1_647"
  name: "relu_473"
  type: RELU
}
layers {
  bottom: "ep_conv_5x5_1_647"
  top: "ep_upsample_648"
  name: "upsample_504"
  type: UPSAMPLING
  upsampling_param {
    kernel_size: 2
  }
}
layers {
  bottom: "ep_upsample_648"
  top: "ep_conv_5x5_1_649"
  name: "conv_5x5_1_535"
  type: CONVOLUTION
  blobs_lr: 1
  blobs_lr: 2
  weight_decay: 1
  weight_decay: 0
  convolution_param {
    num_output: 64
    pad: 2
    kernel_size: 5
    stride: 1
    weight_filler {
      type: "xavier"
    }
    bias_filler {
      type: "constant"
      value: 0.1
    }
  }
  param: "dec_img_conv2_w"
  param: "dec_img_conv2_b"
}
layers {
  bottom: "ep_conv_5x5_1_649"
  top: "ep_conv_5x5_1_649"
  name: "relu_566"
  type: RELU
}
layers {
  bottom: "ep_conv_5x5_1_649"
  top: "ep_upsample_650"
  name: "upsample_597"
  type: UPSAMPLING
  upsampling_param {
    kernel_size: 2
  }
}
layers {
  bottom: "ep_upsample_650"
  top: "ep_t25_conv_5x5_1_809"
  name: "t25_conv_5x5_1_628"
  type: CONVOLUTION
  blobs_lr: 1
  blobs_lr: 2
  weight_decay: 1
  weight_decay: 0
  convolution_param {
    num_output: 3
    pad: 2
    kernel_size: 5
    stride: 1
    weight_filler {
      type: "xavier"
    }
    bias_filler {
      type: "constant"
      value: 0.1
    }
  }
  param: "dec_img_conv3_w"
  param: "dec_img_conv3_b"
}
layers {
  bottom: "ep_split_651"
  top: "ep_inner_product_652"
  name: "inner_product_659"
  type: INNER_PRODUCT
  blobs_lr: 1
  blobs_lr: 2
  weight_decay: 1
  weight_decay: 0
  inner_product_param {
    num_output: 8192
    weight_filler {
      type: "xavier"
    }
    bias_filler {
      type: "constant"
      value: 0.1
    }
  }
  param: "dec_mask_fc1_w"
  param: "dec_mask_fc1_b"
}
layers {
  bottom: "ep_inner_product_652"
  top: "ep_inner_product_652"
  name: "relu_690"
  type: RELU
}
layers {
  bottom: "ep_inner_product_652"
  top: "ep_folding_653"
  name: "folding_721"
  type: FOLDING
  folding_param {
    channels_folded: 128
    height_folded: 8
    width_folded: 8
  }
}
layers {
  bottom: "ep_folding_653"
  top: "ep_upsample_654"
  name: "upsample_752"
  type: UPSAMPLING
  upsampling_param {
    kernel_size: 2
  }
}
layers {
  bottom: "ep_upsample_654"
  top: "ep_conv_5x5_1_655"
  name: "conv_5x5_1_783"
  type: CONVOLUTION
  blobs_lr: 1
  blobs_lr: 2
  weight_decay: 1
  weight_decay: 0
  convolution_param {
    num_output: 64
    pad: 2
    kernel_size: 5
    stride: 1
    weight_filler {
      type: "xavier"
    }
    bias_filler {
      type: "constant"
      value: 0.1
    }
  }
  param: "dec_mask_conv1_w"
  param: "dec_mask_conv1_b"
}
layers {
  bottom: "ep_conv_5x5_1_655"
  top: "ep_conv_5x5_1_655"
  name: "relu_814"
  type: RELU
}
layers {
  bottom: "ep_conv_5x5_1_655"
  top: "ep_upsample_656"
  name: "upsample_845"
  type: UPSAMPLING
  upsampling_param {
    kernel_size: 2
  }
}
layers {
  bottom: "ep_upsample_656"
  top: "ep_conv_5x5_1_657"
  name: "conv_5x5_1_876"
  type: CONVOLUTION
  blobs_lr: 1
  blobs_lr: 2
  weight_decay: 1
  weight_decay: 0
  convolution_param {
    num_output: 32
    pad: 2
    kernel_size: 5
    stride: 1
    weight_filler {
      type: "xavier"
    }
    bias_filler {
      type: "constant"
      value: 0.1
    }
  }
  param: "dec_mask_conv2_w"
  param: "dec_mask_conv2_b"
}
layers {
  bottom: "ep_conv_5x5_1_657"
  top: "ep_conv_5x5_1_657"
  name: "relu_907"
  type: RELU
}
layers {
  bottom: "ep_conv_5x5_1_657"
  top: "ep_upsample_658"
  name: "upsample_938"
  type: UPSAMPLING
  upsampling_param {
    kernel_size: 2
  }
}
layers {
  bottom: "ep_upsample_658"
  top: "ep_t25_conv_5x5_1_840"
  name: "t25_conv_5x5_1_969"
  type: CONVOLUTION
  blobs_lr: 1
  blobs_lr: 2
  weight_decay: 1
  weight_decay: 0
  convolution_param {
    num_output: 1
    pad: 2
    kernel_size: 5
    stride: 1
    weight_filler {
      type: "xavier"
    }
    bias_filler {
      type: "constant"
      value: 0.1
    }
  }
  param: "dec_mask_conv3_w"
  param: "dec_mask_conv3_b"
}
layers {
  bottom: "ep_split_659"
  bottom: "rotations26"
  top: "ep_tensor_product_660"
  name: "tensor_product_40"
  type: TENSOR_PRODUCT
  blobs_lr: 1
  blobs_lr: 2
  weight_decay: 1
  weight_decay: 0
  inner_product_param {
    num_output: 512
    weight_filler {
      type: "xavier"
    }
    bias_filler {
      type: "constant"
      value: 0.1
    }
  }
  param: "tensor_view_w"
  param: "tensor_view_b"
}
layers {
  bottom: "ep_tensor_product_660"
  top: "ep_relu_661"
  name: "relu_71"
  type: RELU
}
layers {
  bottom: "ep_relu_661"
  top: "ep_split_663"
  top: "ep_split_684"
  name: "split_102"
  type: SPLIT
}
layers {
  bottom: "ep_split_662"
  bottom: "ep_split_663"
  top: "ep_concat_664"
  name: "concat_133"
  type: CONCAT
  concat_param {
    concat_dim: 1
  }
}
layers {
  bottom: "ep_concat_664"
  top: "ep_inner_product_665"
  name: "inner_product_164"
  type: INNER_PRODUCT
  blobs_lr: 1
  blobs_lr: 2
  weight_decay: 1
  weight_decay: 0
  inner_product_param {
    num_output: 1024
    weight_filler {
      type: "xavier"
    }
    bias_filler {
      type: "constant"
      value: 0.1
    }
  }
  param: "dec_fc1_w"
  param: "dec_fc1_b"
}
layers {
  bottom: "ep_inner_product_665"
  top: "ep_inner_product_665"
  name: "relu_195"
  type: RELU
}
layers {
  bottom: "ep_inner_product_665"
  top: "ep_inner_product_666"
  name: "inner_product_226"
  type: INNER_PRODUCT
  blobs_lr: 1
  blobs_lr: 2
  weight_decay: 1
  weight_decay: 0
  inner_product_param {
    num_output: 1024
    weight_filler {
      type: "xavier"
    }
    bias_filler {
      type: "constant"
      value: 0.1
    }
  }
  param: "dec_fc2_w"
  param: "dec_fc2_b"
}
layers {
  bottom: "ep_inner_product_666"
  top: "ep_relu_667"
  name: "relu_257"
  type: RELU
}
layers {
  bottom: "ep_relu_667"
  top: "ep_split_668"
  top: "ep_split_676"
  name: "split_288"
  type: SPLIT
}
layers {
  bottom: "ep_split_668"
  top: "ep_inner_product_669"
  name: "inner_product_319"
  type: INNER_PRODUCT
  blobs_lr: 1
  blobs_lr: 2
  weight_decay: 1
  weight_decay: 0
  inner_product_param {
    num_output: 16384
    weight_filler {
      type: "xavier"
    }
    bias_filler {
      type: "constant"
      value: 0.1
    }
  }
  param: "dec_img_fc1_w"
  param: "dec_img_fc1_b"
}
layers {
  bottom: "ep_inner_product_669"
  top: "ep_inner_product_669"
  name: "relu_350"
  type: RELU
}
layers {
  bottom: "ep_inner_product_669"
  top: "ep_folding_670"
  name: "folding_381"
  type: FOLDING
  folding_param {
    channels_folded: 256
    height_folded: 8
    width_folded: 8
  }
}
layers {
  bottom: "ep_folding_670"
  top: "ep_upsample_671"
  name: "upsample_412"
  type: UPSAMPLING
  upsampling_param {
    kernel_size: 2
  }
}
layers {
  bottom: "ep_upsample_671"
  top: "ep_conv_5x5_1_672"
  name: "conv_5x5_1_443"
  type: CONVOLUTION
  blobs_lr: 1
  blobs_lr: 2
  weight_decay: 1
  weight_decay: 0
  convolution_param {
    num_output: 128
    pad: 2
    kernel_size: 5
    stride: 1
    weight_filler {
      type: "xavier"
    }
    bias_filler {
      type: "constant"
      value: 0.1
    }
  }
  param: "dec_img_conv1_w"
  param: "dec_img_conv1_b"
}
layers {
  bottom: "ep_conv_5x5_1_672"
  top: "ep_conv_5x5_1_672"
  name: "relu_474"
  type: RELU
}
layers {
  bottom: "ep_conv_5x5_1_672"
  top: "ep_upsample_673"
  name: "upsample_505"
  type: UPSAMPLING
  upsampling_param {
    kernel_size: 2
  }
}
layers {
  bottom: "ep_upsample_673"
  top: "ep_conv_5x5_1_674"
  name: "conv_5x5_1_536"
  type: CONVOLUTION
  blobs_lr: 1
  blobs_lr: 2
  weight_decay: 1
  weight_decay: 0
  convolution_param {
    num_output: 64
    pad: 2
    kernel_size: 5
    stride: 1
    weight_filler {
      type: "xavier"
    }
    bias_filler {
      type: "constant"
      value: 0.1
    }
  }
  param: "dec_img_conv2_w"
  param: "dec_img_conv2_b"
}
layers {
  bottom: "ep_conv_5x5_1_674"
  top: "ep_conv_5x5_1_674"
  name: "relu_567"
  type: RELU
}
layers {
  bottom: "ep_conv_5x5_1_674"
  top: "ep_upsample_675"
  name: "upsample_598"
  type: UPSAMPLING
  upsampling_param {
    kernel_size: 2
  }
}
layers {
  bottom: "ep_upsample_675"
  top: "ep_t26_conv_5x5_1_810"
  name: "t26_conv_5x5_1_629"
  type: CONVOLUTION
  blobs_lr: 1
  blobs_lr: 2
  weight_decay: 1
  weight_decay: 0
  convolution_param {
    num_output: 3
    pad: 2
    kernel_size: 5
    stride: 1
    weight_filler {
      type: "xavier"
    }
    bias_filler {
      type: "constant"
      value: 0.1
    }
  }
  param: "dec_img_conv3_w"
  param: "dec_img_conv3_b"
}
layers {
  bottom: "ep_split_676"
  top: "ep_inner_product_677"
  name: "inner_product_660"
  type: INNER_PRODUCT
  blobs_lr: 1
  blobs_lr: 2
  weight_decay: 1
  weight_decay: 0
  inner_product_param {
    num_output: 8192
    weight_filler {
      type: "xavier"
    }
    bias_filler {
      type: "constant"
      value: 0.1
    }
  }
  param: "dec_mask_fc1_w"
  param: "dec_mask_fc1_b"
}
layers {
  bottom: "ep_inner_product_677"
  top: "ep_inner_product_677"
  name: "relu_691"
  type: RELU
}
layers {
  bottom: "ep_inner_product_677"
  top: "ep_folding_678"
  name: "folding_722"
  type: FOLDING
  folding_param {
    channels_folded: 128
    height_folded: 8
    width_folded: 8
  }
}
layers {
  bottom: "ep_folding_678"
  top: "ep_upsample_679"
  name: "upsample_753"
  type: UPSAMPLING
  upsampling_param {
    kernel_size: 2
  }
}
layers {
  bottom: "ep_upsample_679"
  top: "ep_conv_5x5_1_680"
  name: "conv_5x5_1_784"
  type: CONVOLUTION
  blobs_lr: 1
  blobs_lr: 2
  weight_decay: 1
  weight_decay: 0
  convolution_param {
    num_output: 64
    pad: 2
    kernel_size: 5
    stride: 1
    weight_filler {
      type: "xavier"
    }
    bias_filler {
      type: "constant"
      value: 0.1
    }
  }
  param: "dec_mask_conv1_w"
  param: "dec_mask_conv1_b"
}
layers {
  bottom: "ep_conv_5x5_1_680"
  top: "ep_conv_5x5_1_680"
  name: "relu_815"
  type: RELU
}
layers {
  bottom: "ep_conv_5x5_1_680"
  top: "ep_upsample_681"
  name: "upsample_846"
  type: UPSAMPLING
  upsampling_param {
    kernel_size: 2
  }
}
layers {
  bottom: "ep_upsample_681"
  top: "ep_conv_5x5_1_682"
  name: "conv_5x5_1_877"
  type: CONVOLUTION
  blobs_lr: 1
  blobs_lr: 2
  weight_decay: 1
  weight_decay: 0
  convolution_param {
    num_output: 32
    pad: 2
    kernel_size: 5
    stride: 1
    weight_filler {
      type: "xavier"
    }
    bias_filler {
      type: "constant"
      value: 0.1
    }
  }
  param: "dec_mask_conv2_w"
  param: "dec_mask_conv2_b"
}
layers {
  bottom: "ep_conv_5x5_1_682"
  top: "ep_conv_5x5_1_682"
  name: "relu_908"
  type: RELU
}
layers {
  bottom: "ep_conv_5x5_1_682"
  top: "ep_upsample_683"
  name: "upsample_939"
  type: UPSAMPLING
  upsampling_param {
    kernel_size: 2
  }
}
layers {
  bottom: "ep_upsample_683"
  top: "ep_t26_conv_5x5_1_841"
  name: "t26_conv_5x5_1_970"
  type: CONVOLUTION
  blobs_lr: 1
  blobs_lr: 2
  weight_decay: 1
  weight_decay: 0
  convolution_param {
    num_output: 1
    pad: 2
    kernel_size: 5
    stride: 1
    weight_filler {
      type: "xavier"
    }
    bias_filler {
      type: "constant"
      value: 0.1
    }
  }
  param: "dec_mask_conv3_w"
  param: "dec_mask_conv3_b"
}
layers {
  bottom: "ep_split_684"
  bottom: "rotations27"
  top: "ep_tensor_product_685"
  name: "tensor_product_41"
  type: TENSOR_PRODUCT
  blobs_lr: 1
  blobs_lr: 2
  weight_decay: 1
  weight_decay: 0
  inner_product_param {
    num_output: 512
    weight_filler {
      type: "xavier"
    }
    bias_filler {
      type: "constant"
      value: 0.1
    }
  }
  param: "tensor_view_w"
  param: "tensor_view_b"
}
layers {
  bottom: "ep_tensor_product_685"
  top: "ep_relu_686"
  name: "relu_72"
  type: RELU
}
layers {
  bottom: "ep_relu_686"
  top: "ep_split_688"
  top: "ep_split_709"
  name: "split_103"
  type: SPLIT
}
layers {
  bottom: "ep_split_687"
  bottom: "ep_split_688"
  top: "ep_concat_689"
  name: "concat_134"
  type: CONCAT
  concat_param {
    concat_dim: 1
  }
}
layers {
  bottom: "ep_concat_689"
  top: "ep_inner_product_690"
  name: "inner_product_165"
  type: INNER_PRODUCT
  blobs_lr: 1
  blobs_lr: 2
  weight_decay: 1
  weight_decay: 0
  inner_product_param {
    num_output: 1024
    weight_filler {
      type: "xavier"
    }
    bias_filler {
      type: "constant"
      value: 0.1
    }
  }
  param: "dec_fc1_w"
  param: "dec_fc1_b"
}
layers {
  bottom: "ep_inner_product_690"
  top: "ep_inner_product_690"
  name: "relu_196"
  type: RELU
}
layers {
  bottom: "ep_inner_product_690"
  top: "ep_inner_product_691"
  name: "inner_product_227"
  type: INNER_PRODUCT
  blobs_lr: 1
  blobs_lr: 2
  weight_decay: 1
  weight_decay: 0
  inner_product_param {
    num_output: 1024
    weight_filler {
      type: "xavier"
    }
    bias_filler {
      type: "constant"
      value: 0.1
    }
  }
  param: "dec_fc2_w"
  param: "dec_fc2_b"
}
layers {
  bottom: "ep_inner_product_691"
  top: "ep_relu_692"
  name: "relu_258"
  type: RELU
}
layers {
  bottom: "ep_relu_692"
  top: "ep_split_693"
  top: "ep_split_701"
  name: "split_289"
  type: SPLIT
}
layers {
  bottom: "ep_split_693"
  top: "ep_inner_product_694"
  name: "inner_product_320"
  type: INNER_PRODUCT
  blobs_lr: 1
  blobs_lr: 2
  weight_decay: 1
  weight_decay: 0
  inner_product_param {
    num_output: 16384
    weight_filler {
      type: "xavier"
    }
    bias_filler {
      type: "constant"
      value: 0.1
    }
  }
  param: "dec_img_fc1_w"
  param: "dec_img_fc1_b"
}
layers {
  bottom: "ep_inner_product_694"
  top: "ep_inner_product_694"
  name: "relu_351"
  type: RELU
}
layers {
  bottom: "ep_inner_product_694"
  top: "ep_folding_695"
  name: "folding_382"
  type: FOLDING
  folding_param {
    channels_folded: 256
    height_folded: 8
    width_folded: 8
  }
}
layers {
  bottom: "ep_folding_695"
  top: "ep_upsample_696"
  name: "upsample_413"
  type: UPSAMPLING
  upsampling_param {
    kernel_size: 2
  }
}
layers {
  bottom: "ep_upsample_696"
  top: "ep_conv_5x5_1_697"
  name: "conv_5x5_1_444"
  type: CONVOLUTION
  blobs_lr: 1
  blobs_lr: 2
  weight_decay: 1
  weight_decay: 0
  convolution_param {
    num_output: 128
    pad: 2
    kernel_size: 5
    stride: 1
    weight_filler {
      type: "xavier"
    }
    bias_filler {
      type: "constant"
      value: 0.1
    }
  }
  param: "dec_img_conv1_w"
  param: "dec_img_conv1_b"
}
layers {
  bottom: "ep_conv_5x5_1_697"
  top: "ep_conv_5x5_1_697"
  name: "relu_475"
  type: RELU
}
layers {
  bottom: "ep_conv_5x5_1_697"
  top: "ep_upsample_698"
  name: "upsample_506"
  type: UPSAMPLING
  upsampling_param {
    kernel_size: 2
  }
}
layers {
  bottom: "ep_upsample_698"
  top: "ep_conv_5x5_1_699"
  name: "conv_5x5_1_537"
  type: CONVOLUTION
  blobs_lr: 1
  blobs_lr: 2
  weight_decay: 1
  weight_decay: 0
  convolution_param {
    num_output: 64
    pad: 2
    kernel_size: 5
    stride: 1
    weight_filler {
      type: "xavier"
    }
    bias_filler {
      type: "constant"
      value: 0.1
    }
  }
  param: "dec_img_conv2_w"
  param: "dec_img_conv2_b"
}
layers {
  bottom: "ep_conv_5x5_1_699"
  top: "ep_conv_5x5_1_699"
  name: "relu_568"
  type: RELU
}
layers {
  bottom: "ep_conv_5x5_1_699"
  top: "ep_upsample_700"
  name: "upsample_599"
  type: UPSAMPLING
  upsampling_param {
    kernel_size: 2
  }
}
layers {
  bottom: "ep_upsample_700"
  top: "ep_t27_conv_5x5_1_811"
  name: "t27_conv_5x5_1_630"
  type: CONVOLUTION
  blobs_lr: 1
  blobs_lr: 2
  weight_decay: 1
  weight_decay: 0
  convolution_param {
    num_output: 3
    pad: 2
    kernel_size: 5
    stride: 1
    weight_filler {
      type: "xavier"
    }
    bias_filler {
      type: "constant"
      value: 0.1
    }
  }
  param: "dec_img_conv3_w"
  param: "dec_img_conv3_b"
}
layers {
  bottom: "ep_split_701"
  top: "ep_inner_product_702"
  name: "inner_product_661"
  type: INNER_PRODUCT
  blobs_lr: 1
  blobs_lr: 2
  weight_decay: 1
  weight_decay: 0
  inner_product_param {
    num_output: 8192
    weight_filler {
      type: "xavier"
    }
    bias_filler {
      type: "constant"
      value: 0.1
    }
  }
  param: "dec_mask_fc1_w"
  param: "dec_mask_fc1_b"
}
layers {
  bottom: "ep_inner_product_702"
  top: "ep_inner_product_702"
  name: "relu_692"
  type: RELU
}
layers {
  bottom: "ep_inner_product_702"
  top: "ep_folding_703"
  name: "folding_723"
  type: FOLDING
  folding_param {
    channels_folded: 128
    height_folded: 8
    width_folded: 8
  }
}
layers {
  bottom: "ep_folding_703"
  top: "ep_upsample_704"
  name: "upsample_754"
  type: UPSAMPLING
  upsampling_param {
    kernel_size: 2
  }
}
layers {
  bottom: "ep_upsample_704"
  top: "ep_conv_5x5_1_705"
  name: "conv_5x5_1_785"
  type: CONVOLUTION
  blobs_lr: 1
  blobs_lr: 2
  weight_decay: 1
  weight_decay: 0
  convolution_param {
    num_output: 64
    pad: 2
    kernel_size: 5
    stride: 1
    weight_filler {
      type: "xavier"
    }
    bias_filler {
      type: "constant"
      value: 0.1
    }
  }
  param: "dec_mask_conv1_w"
  param: "dec_mask_conv1_b"
}
layers {
  bottom: "ep_conv_5x5_1_705"
  top: "ep_conv_5x5_1_705"
  name: "relu_816"
  type: RELU
}
layers {
  bottom: "ep_conv_5x5_1_705"
  top: "ep_upsample_706"
  name: "upsample_847"
  type: UPSAMPLING
  upsampling_param {
    kernel_size: 2
  }
}
layers {
  bottom: "ep_upsample_706"
  top: "ep_conv_5x5_1_707"
  name: "conv_5x5_1_878"
  type: CONVOLUTION
  blobs_lr: 1
  blobs_lr: 2
  weight_decay: 1
  weight_decay: 0
  convolution_param {
    num_output: 32
    pad: 2
    kernel_size: 5
    stride: 1
    weight_filler {
      type: "xavier"
    }
    bias_filler {
      type: "constant"
      value: 0.1
    }
  }
  param: "dec_mask_conv2_w"
  param: "dec_mask_conv2_b"
}
layers {
  bottom: "ep_conv_5x5_1_707"
  top: "ep_conv_5x5_1_707"
  name: "relu_909"
  type: RELU
}
layers {
  bottom: "ep_conv_5x5_1_707"
  top: "ep_upsample_708"
  name: "upsample_940"
  type: UPSAMPLING
  upsampling_param {
    kernel_size: 2
  }
}
layers {
  bottom: "ep_upsample_708"
  top: "ep_t27_conv_5x5_1_842"
  name: "t27_conv_5x5_1_971"
  type: CONVOLUTION
  blobs_lr: 1
  blobs_lr: 2
  weight_decay: 1
  weight_decay: 0
  convolution_param {
    num_output: 1
    pad: 2
    kernel_size: 5
    stride: 1
    weight_filler {
      type: "xavier"
    }
    bias_filler {
      type: "constant"
      value: 0.1
    }
  }
  param: "dec_mask_conv3_w"
  param: "dec_mask_conv3_b"
}
layers {
  bottom: "ep_split_709"
  bottom: "rotations28"
  top: "ep_tensor_product_710"
  name: "tensor_product_42"
  type: TENSOR_PRODUCT
  blobs_lr: 1
  blobs_lr: 2
  weight_decay: 1
  weight_decay: 0
  inner_product_param {
    num_output: 512
    weight_filler {
      type: "xavier"
    }
    bias_filler {
      type: "constant"
      value: 0.1
    }
  }
  param: "tensor_view_w"
  param: "tensor_view_b"
}
layers {
  bottom: "ep_tensor_product_710"
  top: "ep_relu_711"
  name: "relu_73"
  type: RELU
}
layers {
  bottom: "ep_relu_711"
  top: "ep_split_713"
  top: "ep_split_734"
  name: "split_104"
  type: SPLIT
}
layers {
  bottom: "ep_split_712"
  bottom: "ep_split_713"
  top: "ep_concat_714"
  name: "concat_135"
  type: CONCAT
  concat_param {
    concat_dim: 1
  }
}
layers {
  bottom: "ep_concat_714"
  top: "ep_inner_product_715"
  name: "inner_product_166"
  type: INNER_PRODUCT
  blobs_lr: 1
  blobs_lr: 2
  weight_decay: 1
  weight_decay: 0
  inner_product_param {
    num_output: 1024
    weight_filler {
      type: "xavier"
    }
    bias_filler {
      type: "constant"
      value: 0.1
    }
  }
  param: "dec_fc1_w"
  param: "dec_fc1_b"
}
layers {
  bottom: "ep_inner_product_715"
  top: "ep_inner_product_715"
  name: "relu_197"
  type: RELU
}
layers {
  bottom: "ep_inner_product_715"
  top: "ep_inner_product_716"
  name: "inner_product_228"
  type: INNER_PRODUCT
  blobs_lr: 1
  blobs_lr: 2
  weight_decay: 1
  weight_decay: 0
  inner_product_param {
    num_output: 1024
    weight_filler {
      type: "xavier"
    }
    bias_filler {
      type: "constant"
      value: 0.1
    }
  }
  param: "dec_fc2_w"
  param: "dec_fc2_b"
}
layers {
  bottom: "ep_inner_product_716"
  top: "ep_relu_717"
  name: "relu_259"
  type: RELU
}
layers {
  bottom: "ep_relu_717"
  top: "ep_split_718"
  top: "ep_split_726"
  name: "split_290"
  type: SPLIT
}
layers {
  bottom: "ep_split_718"
  top: "ep_inner_product_719"
  name: "inner_product_321"
  type: INNER_PRODUCT
  blobs_lr: 1
  blobs_lr: 2
  weight_decay: 1
  weight_decay: 0
  inner_product_param {
    num_output: 16384
    weight_filler {
      type: "xavier"
    }
    bias_filler {
      type: "constant"
      value: 0.1
    }
  }
  param: "dec_img_fc1_w"
  param: "dec_img_fc1_b"
}
layers {
  bottom: "ep_inner_product_719"
  top: "ep_inner_product_719"
  name: "relu_352"
  type: RELU
}
layers {
  bottom: "ep_inner_product_719"
  top: "ep_folding_720"
  name: "folding_383"
  type: FOLDING
  folding_param {
    channels_folded: 256
    height_folded: 8
    width_folded: 8
  }
}
layers {
  bottom: "ep_folding_720"
  top: "ep_upsample_721"
  name: "upsample_414"
  type: UPSAMPLING
  upsampling_param {
    kernel_size: 2
  }
}
layers {
  bottom: "ep_upsample_721"
  top: "ep_conv_5x5_1_722"
  name: "conv_5x5_1_445"
  type: CONVOLUTION
  blobs_lr: 1
  blobs_lr: 2
  weight_decay: 1
  weight_decay: 0
  convolution_param {
    num_output: 128
    pad: 2
    kernel_size: 5
    stride: 1
    weight_filler {
      type: "xavier"
    }
    bias_filler {
      type: "constant"
      value: 0.1
    }
  }
  param: "dec_img_conv1_w"
  param: "dec_img_conv1_b"
}
layers {
  bottom: "ep_conv_5x5_1_722"
  top: "ep_conv_5x5_1_722"
  name: "relu_476"
  type: RELU
}
layers {
  bottom: "ep_conv_5x5_1_722"
  top: "ep_upsample_723"
  name: "upsample_507"
  type: UPSAMPLING
  upsampling_param {
    kernel_size: 2
  }
}
layers {
  bottom: "ep_upsample_723"
  top: "ep_conv_5x5_1_724"
  name: "conv_5x5_1_538"
  type: CONVOLUTION
  blobs_lr: 1
  blobs_lr: 2
  weight_decay: 1
  weight_decay: 0
  convolution_param {
    num_output: 64
    pad: 2
    kernel_size: 5
    stride: 1
    weight_filler {
      type: "xavier"
    }
    bias_filler {
      type: "constant"
      value: 0.1
    }
  }
  param: "dec_img_conv2_w"
  param: "dec_img_conv2_b"
}
layers {
  bottom: "ep_conv_5x5_1_724"
  top: "ep_conv_5x5_1_724"
  name: "relu_569"
  type: RELU
}
layers {
  bottom: "ep_conv_5x5_1_724"
  top: "ep_upsample_725"
  name: "upsample_600"
  type: UPSAMPLING
  upsampling_param {
    kernel_size: 2
  }
}
layers {
  bottom: "ep_upsample_725"
  top: "ep_t28_conv_5x5_1_812"
  name: "t28_conv_5x5_1_631"
  type: CONVOLUTION
  blobs_lr: 1
  blobs_lr: 2
  weight_decay: 1
  weight_decay: 0
  convolution_param {
    num_output: 3
    pad: 2
    kernel_size: 5
    stride: 1
    weight_filler {
      type: "xavier"
    }
    bias_filler {
      type: "constant"
      value: 0.1
    }
  }
  param: "dec_img_conv3_w"
  param: "dec_img_conv3_b"
}
layers {
  bottom: "ep_split_726"
  top: "ep_inner_product_727"
  name: "inner_product_662"
  type: INNER_PRODUCT
  blobs_lr: 1
  blobs_lr: 2
  weight_decay: 1
  weight_decay: 0
  inner_product_param {
    num_output: 8192
    weight_filler {
      type: "xavier"
    }
    bias_filler {
      type: "constant"
      value: 0.1
    }
  }
  param: "dec_mask_fc1_w"
  param: "dec_mask_fc1_b"
}
layers {
  bottom: "ep_inner_product_727"
  top: "ep_inner_product_727"
  name: "relu_693"
  type: RELU
}
layers {
  bottom: "ep_inner_product_727"
  top: "ep_folding_728"
  name: "folding_724"
  type: FOLDING
  folding_param {
    channels_folded: 128
    height_folded: 8
    width_folded: 8
  }
}
layers {
  bottom: "ep_folding_728"
  top: "ep_upsample_729"
  name: "upsample_755"
  type: UPSAMPLING
  upsampling_param {
    kernel_size: 2
  }
}
layers {
  bottom: "ep_upsample_729"
  top: "ep_conv_5x5_1_730"
  name: "conv_5x5_1_786"
  type: CONVOLUTION
  blobs_lr: 1
  blobs_lr: 2
  weight_decay: 1
  weight_decay: 0
  convolution_param {
    num_output: 64
    pad: 2
    kernel_size: 5
    stride: 1
    weight_filler {
      type: "xavier"
    }
    bias_filler {
      type: "constant"
      value: 0.1
    }
  }
  param: "dec_mask_conv1_w"
  param: "dec_mask_conv1_b"
}
layers {
  bottom: "ep_conv_5x5_1_730"
  top: "ep_conv_5x5_1_730"
  name: "relu_817"
  type: RELU
}
layers {
  bottom: "ep_conv_5x5_1_730"
  top: "ep_upsample_731"
  name: "upsample_848"
  type: UPSAMPLING
  upsampling_param {
    kernel_size: 2
  }
}
layers {
  bottom: "ep_upsample_731"
  top: "ep_conv_5x5_1_732"
  name: "conv_5x5_1_879"
  type: CONVOLUTION
  blobs_lr: 1
  blobs_lr: 2
  weight_decay: 1
  weight_decay: 0
  convolution_param {
    num_output: 32
    pad: 2
    kernel_size: 5
    stride: 1
    weight_filler {
      type: "xavier"
    }
    bias_filler {
      type: "constant"
      value: 0.1
    }
  }
  param: "dec_mask_conv2_w"
  param: "dec_mask_conv2_b"
}
layers {
  bottom: "ep_conv_5x5_1_732"
  top: "ep_conv_5x5_1_732"
  name: "relu_910"
  type: RELU
}
layers {
  bottom: "ep_conv_5x5_1_732"
  top: "ep_upsample_733"
  name: "upsample_941"
  type: UPSAMPLING
  upsampling_param {
    kernel_size: 2
  }
}
layers {
  bottom: "ep_upsample_733"
  top: "ep_t28_conv_5x5_1_843"
  name: "t28_conv_5x5_1_972"
  type: CONVOLUTION
  blobs_lr: 1
  blobs_lr: 2
  weight_decay: 1
  weight_decay: 0
  convolution_param {
    num_output: 1
    pad: 2
    kernel_size: 5
    stride: 1
    weight_filler {
      type: "xavier"
    }
    bias_filler {
      type: "constant"
      value: 0.1
    }
  }
  param: "dec_mask_conv3_w"
  param: "dec_mask_conv3_b"
}
layers {
  bottom: "ep_split_734"
  bottom: "rotations29"
  top: "ep_tensor_product_735"
  name: "tensor_product_43"
  type: TENSOR_PRODUCT
  blobs_lr: 1
  blobs_lr: 2
  weight_decay: 1
  weight_decay: 0
  inner_product_param {
    num_output: 512
    weight_filler {
      type: "xavier"
    }
    bias_filler {
      type: "constant"
      value: 0.1
    }
  }
  param: "tensor_view_w"
  param: "tensor_view_b"
}
layers {
  bottom: "ep_tensor_product_735"
  top: "ep_relu_736"
  name: "relu_74"
  type: RELU
}
layers {
  bottom: "ep_relu_736"
  top: "ep_split_738"
  top: "ep_split_759"
  name: "split_105"
  type: SPLIT
}
layers {
  bottom: "ep_split_737"
  bottom: "ep_split_738"
  top: "ep_concat_739"
  name: "concat_136"
  type: CONCAT
  concat_param {
    concat_dim: 1
  }
}
layers {
  bottom: "ep_concat_739"
  top: "ep_inner_product_740"
  name: "inner_product_167"
  type: INNER_PRODUCT
  blobs_lr: 1
  blobs_lr: 2
  weight_decay: 1
  weight_decay: 0
  inner_product_param {
    num_output: 1024
    weight_filler {
      type: "xavier"
    }
    bias_filler {
      type: "constant"
      value: 0.1
    }
  }
  param: "dec_fc1_w"
  param: "dec_fc1_b"
}
layers {
  bottom: "ep_inner_product_740"
  top: "ep_inner_product_740"
  name: "relu_198"
  type: RELU
}
layers {
  bottom: "ep_inner_product_740"
  top: "ep_inner_product_741"
  name: "inner_product_229"
  type: INNER_PRODUCT
  blobs_lr: 1
  blobs_lr: 2
  weight_decay: 1
  weight_decay: 0
  inner_product_param {
    num_output: 1024
    weight_filler {
      type: "xavier"
    }
    bias_filler {
      type: "constant"
      value: 0.1
    }
  }
  param: "dec_fc2_w"
  param: "dec_fc2_b"
}
layers {
  bottom: "ep_inner_product_741"
  top: "ep_relu_742"
  name: "relu_260"
  type: RELU
}
layers {
  bottom: "ep_relu_742"
  top: "ep_split_743"
  top: "ep_split_751"
  name: "split_291"
  type: SPLIT
}
layers {
  bottom: "ep_split_743"
  top: "ep_inner_product_744"
  name: "inner_product_322"
  type: INNER_PRODUCT
  blobs_lr: 1
  blobs_lr: 2
  weight_decay: 1
  weight_decay: 0
  inner_product_param {
    num_output: 16384
    weight_filler {
      type: "xavier"
    }
    bias_filler {
      type: "constant"
      value: 0.1
    }
  }
  param: "dec_img_fc1_w"
  param: "dec_img_fc1_b"
}
layers {
  bottom: "ep_inner_product_744"
  top: "ep_inner_product_744"
  name: "relu_353"
  type: RELU
}
layers {
  bottom: "ep_inner_product_744"
  top: "ep_folding_745"
  name: "folding_384"
  type: FOLDING
  folding_param {
    channels_folded: 256
    height_folded: 8
    width_folded: 8
  }
}
layers {
  bottom: "ep_folding_745"
  top: "ep_upsample_746"
  name: "upsample_415"
  type: UPSAMPLING
  upsampling_param {
    kernel_size: 2
  }
}
layers {
  bottom: "ep_upsample_746"
  top: "ep_conv_5x5_1_747"
  name: "conv_5x5_1_446"
  type: CONVOLUTION
  blobs_lr: 1
  blobs_lr: 2
  weight_decay: 1
  weight_decay: 0
  convolution_param {
    num_output: 128
    pad: 2
    kernel_size: 5
    stride: 1
    weight_filler {
      type: "xavier"
    }
    bias_filler {
      type: "constant"
      value: 0.1
    }
  }
  param: "dec_img_conv1_w"
  param: "dec_img_conv1_b"
}
layers {
  bottom: "ep_conv_5x5_1_747"
  top: "ep_conv_5x5_1_747"
  name: "relu_477"
  type: RELU
}
layers {
  bottom: "ep_conv_5x5_1_747"
  top: "ep_upsample_748"
  name: "upsample_508"
  type: UPSAMPLING
  upsampling_param {
    kernel_size: 2
  }
}
layers {
  bottom: "ep_upsample_748"
  top: "ep_conv_5x5_1_749"
  name: "conv_5x5_1_539"
  type: CONVOLUTION
  blobs_lr: 1
  blobs_lr: 2
  weight_decay: 1
  weight_decay: 0
  convolution_param {
    num_output: 64
    pad: 2
    kernel_size: 5
    stride: 1
    weight_filler {
      type: "xavier"
    }
    bias_filler {
      type: "constant"
      value: 0.1
    }
  }
  param: "dec_img_conv2_w"
  param: "dec_img_conv2_b"
}
layers {
  bottom: "ep_conv_5x5_1_749"
  top: "ep_conv_5x5_1_749"
  name: "relu_570"
  type: RELU
}
layers {
  bottom: "ep_conv_5x5_1_749"
  top: "ep_upsample_750"
  name: "upsample_601"
  type: UPSAMPLING
  upsampling_param {
    kernel_size: 2
  }
}
layers {
  bottom: "ep_upsample_750"
  top: "ep_t29_conv_5x5_1_813"
  name: "t29_conv_5x5_1_632"
  type: CONVOLUTION
  blobs_lr: 1
  blobs_lr: 2
  weight_decay: 1
  weight_decay: 0
  convolution_param {
    num_output: 3
    pad: 2
    kernel_size: 5
    stride: 1
    weight_filler {
      type: "xavier"
    }
    bias_filler {
      type: "constant"
      value: 0.1
    }
  }
  param: "dec_img_conv3_w"
  param: "dec_img_conv3_b"
}
layers {
  bottom: "ep_split_751"
  top: "ep_inner_product_752"
  name: "inner_product_663"
  type: INNER_PRODUCT
  blobs_lr: 1
  blobs_lr: 2
  weight_decay: 1
  weight_decay: 0
  inner_product_param {
    num_output: 8192
    weight_filler {
      type: "xavier"
    }
    bias_filler {
      type: "constant"
      value: 0.1
    }
  }
  param: "dec_mask_fc1_w"
  param: "dec_mask_fc1_b"
}
layers {
  bottom: "ep_inner_product_752"
  top: "ep_inner_product_752"
  name: "relu_694"
  type: RELU
}
layers {
  bottom: "ep_inner_product_752"
  top: "ep_folding_753"
  name: "folding_725"
  type: FOLDING
  folding_param {
    channels_folded: 128
    height_folded: 8
    width_folded: 8
  }
}
layers {
  bottom: "ep_folding_753"
  top: "ep_upsample_754"
  name: "upsample_756"
  type: UPSAMPLING
  upsampling_param {
    kernel_size: 2
  }
}
layers {
  bottom: "ep_upsample_754"
  top: "ep_conv_5x5_1_755"
  name: "conv_5x5_1_787"
  type: CONVOLUTION
  blobs_lr: 1
  blobs_lr: 2
  weight_decay: 1
  weight_decay: 0
  convolution_param {
    num_output: 64
    pad: 2
    kernel_size: 5
    stride: 1
    weight_filler {
      type: "xavier"
    }
    bias_filler {
      type: "constant"
      value: 0.1
    }
  }
  param: "dec_mask_conv1_w"
  param: "dec_mask_conv1_b"
}
layers {
  bottom: "ep_conv_5x5_1_755"
  top: "ep_conv_5x5_1_755"
  name: "relu_818"
  type: RELU
}
layers {
  bottom: "ep_conv_5x5_1_755"
  top: "ep_upsample_756"
  name: "upsample_849"
  type: UPSAMPLING
  upsampling_param {
    kernel_size: 2
  }
}
layers {
  bottom: "ep_upsample_756"
  top: "ep_conv_5x5_1_757"
  name: "conv_5x5_1_880"
  type: CONVOLUTION
  blobs_lr: 1
  blobs_lr: 2
  weight_decay: 1
  weight_decay: 0
  convolution_param {
    num_output: 32
    pad: 2
    kernel_size: 5
    stride: 1
    weight_filler {
      type: "xavier"
    }
    bias_filler {
      type: "constant"
      value: 0.1
    }
  }
  param: "dec_mask_conv2_w"
  param: "dec_mask_conv2_b"
}
layers {
  bottom: "ep_conv_5x5_1_757"
  top: "ep_conv_5x5_1_757"
  name: "relu_911"
  type: RELU
}
layers {
  bottom: "ep_conv_5x5_1_757"
  top: "ep_upsample_758"
  name: "upsample_942"
  type: UPSAMPLING
  upsampling_param {
    kernel_size: 2
  }
}
layers {
  bottom: "ep_upsample_758"
  top: "ep_t29_conv_5x5_1_844"
  name: "t29_conv_5x5_1_973"
  type: CONVOLUTION
  blobs_lr: 1
  blobs_lr: 2
  weight_decay: 1
  weight_decay: 0
  convolution_param {
    num_output: 1
    pad: 2
    kernel_size: 5
    stride: 1
    weight_filler {
      type: "xavier"
    }
    bias_filler {
      type: "constant"
      value: 0.1
    }
  }
  param: "dec_mask_conv3_w"
  param: "dec_mask_conv3_b"
}
layers {
  bottom: "ep_split_759"
  bottom: "rotations30"
  top: "ep_tensor_product_760"
  name: "tensor_product_44"
  type: TENSOR_PRODUCT
  blobs_lr: 1
  blobs_lr: 2
  weight_decay: 1
  weight_decay: 0
  inner_product_param {
    num_output: 512
    weight_filler {
      type: "xavier"
    }
    bias_filler {
      type: "constant"
      value: 0.1
    }
  }
  param: "tensor_view_w"
  param: "tensor_view_b"
}
layers {
  bottom: "ep_tensor_product_760"
  top: "ep_relu_761"
  name: "relu_75"
  type: RELU
}
layers {
  bottom: "ep_relu_761"
  top: "ep_split_763"
  name: "split_106"
  type: SPLIT
}
layers {
  bottom: "ep_split_762"
  bottom: "ep_split_763"
  top: "ep_concat_764"
  name: "concat_137"
  type: CONCAT
  concat_param {
    concat_dim: 1
  }
}
layers {
  bottom: "ep_concat_764"
  top: "ep_inner_product_765"
  name: "inner_product_168"
  type: INNER_PRODUCT
  blobs_lr: 1
  blobs_lr: 2
  weight_decay: 1
  weight_decay: 0
  inner_product_param {
    num_output: 1024
    weight_filler {
      type: "xavier"
    }
    bias_filler {
      type: "constant"
      value: 0.1
    }
  }
  param: "dec_fc1_w"
  param: "dec_fc1_b"
}
layers {
  bottom: "ep_inner_product_765"
  top: "ep_inner_product_765"
  name: "relu_199"
  type: RELU
}
layers {
  bottom: "ep_inner_product_765"
  top: "ep_inner_product_766"
  name: "inner_product_230"
  type: INNER_PRODUCT
  blobs_lr: 1
  blobs_lr: 2
  weight_decay: 1
  weight_decay: 0
  inner_product_param {
    num_output: 1024
    weight_filler {
      type: "xavier"
    }
    bias_filler {
      type: "constant"
      value: 0.1
    }
  }
  param: "dec_fc2_w"
  param: "dec_fc2_b"
}
layers {
  bottom: "ep_inner_product_766"
  top: "ep_relu_767"
  name: "relu_261"
  type: RELU
}
layers {
  bottom: "ep_relu_767"
  top: "ep_split_768"
  top: "ep_split_776"
  name: "split_292"
  type: SPLIT
}
layers {
  bottom: "ep_split_768"
  top: "ep_inner_product_769"
  name: "inner_product_323"
  type: INNER_PRODUCT
  blobs_lr: 1
  blobs_lr: 2
  weight_decay: 1
  weight_decay: 0
  inner_product_param {
    num_output: 16384
    weight_filler {
      type: "xavier"
    }
    bias_filler {
      type: "constant"
      value: 0.1
    }
  }
  param: "dec_img_fc1_w"
  param: "dec_img_fc1_b"
}
layers {
  bottom: "ep_inner_product_769"
  top: "ep_inner_product_769"
  name: "relu_354"
  type: RELU
}
layers {
  bottom: "ep_inner_product_769"
  top: "ep_folding_770"
  name: "folding_385"
  type: FOLDING
  folding_param {
    channels_folded: 256
    height_folded: 8
    width_folded: 8
  }
}
layers {
  bottom: "ep_folding_770"
  top: "ep_upsample_771"
  name: "upsample_416"
  type: UPSAMPLING
  upsampling_param {
    kernel_size: 2
  }
}
layers {
  bottom: "ep_upsample_771"
  top: "ep_conv_5x5_1_772"
  name: "conv_5x5_1_447"
  type: CONVOLUTION
  blobs_lr: 1
  blobs_lr: 2
  weight_decay: 1
  weight_decay: 0
  convolution_param {
    num_output: 128
    pad: 2
    kernel_size: 5
    stride: 1
    weight_filler {
      type: "xavier"
    }
    bias_filler {
      type: "constant"
      value: 0.1
    }
  }
  param: "dec_img_conv1_w"
  param: "dec_img_conv1_b"
}
layers {
  bottom: "ep_conv_5x5_1_772"
  top: "ep_conv_5x5_1_772"
  name: "relu_478"
  type: RELU
}
layers {
  bottom: "ep_conv_5x5_1_772"
  top: "ep_upsample_773"
  name: "upsample_509"
  type: UPSAMPLING
  upsampling_param {
    kernel_size: 2
  }
}
layers {
  bottom: "ep_upsample_773"
  top: "ep_conv_5x5_1_774"
  name: "conv_5x5_1_540"
  type: CONVOLUTION
  blobs_lr: 1
  blobs_lr: 2
  weight_decay: 1
  weight_decay: 0
  convolution_param {
    num_output: 64
    pad: 2
    kernel_size: 5
    stride: 1
    weight_filler {
      type: "xavier"
    }
    bias_filler {
      type: "constant"
      value: 0.1
    }
  }
  param: "dec_img_conv2_w"
  param: "dec_img_conv2_b"
}
layers {
  bottom: "ep_conv_5x5_1_774"
  top: "ep_conv_5x5_1_774"
  name: "relu_571"
  type: RELU
}
layers {
  bottom: "ep_conv_5x5_1_774"
  top: "ep_upsample_775"
  name: "upsample_602"
  type: UPSAMPLING
  upsampling_param {
    kernel_size: 2
  }
}
layers {
  bottom: "ep_upsample_775"
  top: "ep_t30_conv_5x5_1_814"
  name: "t30_conv_5x5_1_633"
  type: CONVOLUTION
  blobs_lr: 1
  blobs_lr: 2
  weight_decay: 1
  weight_decay: 0
  convolution_param {
    num_output: 3
    pad: 2
    kernel_size: 5
    stride: 1
    weight_filler {
      type: "xavier"
    }
    bias_filler {
      type: "constant"
      value: 0.1
    }
  }
  param: "dec_img_conv3_w"
  param: "dec_img_conv3_b"
}
layers {
  bottom: "ep_split_776"
  top: "ep_inner_product_777"
  name: "inner_product_664"
  type: INNER_PRODUCT
  blobs_lr: 1
  blobs_lr: 2
  weight_decay: 1
  weight_decay: 0
  inner_product_param {
    num_output: 8192
    weight_filler {
      type: "xavier"
    }
    bias_filler {
      type: "constant"
      value: 0.1
    }
  }
  param: "dec_mask_fc1_w"
  param: "dec_mask_fc1_b"
}
layers {
  bottom: "ep_inner_product_777"
  top: "ep_inner_product_777"
  name: "relu_695"
  type: RELU
}
layers {
  bottom: "ep_inner_product_777"
  top: "ep_folding_778"
  name: "folding_726"
  type: FOLDING
  folding_param {
    channels_folded: 128
    height_folded: 8
    width_folded: 8
  }
}
layers {
  bottom: "ep_folding_778"
  top: "ep_upsample_779"
  name: "upsample_757"
  type: UPSAMPLING
  upsampling_param {
    kernel_size: 2
  }
}
layers {
  bottom: "ep_upsample_779"
  top: "ep_conv_5x5_1_780"
  name: "conv_5x5_1_788"
  type: CONVOLUTION
  blobs_lr: 1
  blobs_lr: 2
  weight_decay: 1
  weight_decay: 0
  convolution_param {
    num_output: 64
    pad: 2
    kernel_size: 5
    stride: 1
    weight_filler {
      type: "xavier"
    }
    bias_filler {
      type: "constant"
      value: 0.1
    }
  }
  param: "dec_mask_conv1_w"
  param: "dec_mask_conv1_b"
}
layers {
  bottom: "ep_conv_5x5_1_780"
  top: "ep_conv_5x5_1_780"
  name: "relu_819"
  type: RELU
}
layers {
  bottom: "ep_conv_5x5_1_780"
  top: "ep_upsample_781"
  name: "upsample_850"
  type: UPSAMPLING
  upsampling_param {
    kernel_size: 2
  }
}
layers {
  bottom: "ep_upsample_781"
  top: "ep_conv_5x5_1_782"
  name: "conv_5x5_1_881"
  type: CONVOLUTION
  blobs_lr: 1
  blobs_lr: 2
  weight_decay: 1
  weight_decay: 0
  convolution_param {
    num_output: 32
    pad: 2
    kernel_size: 5
    stride: 1
    weight_filler {
      type: "xavier"
    }
    bias_filler {
      type: "constant"
      value: 0.1
    }
  }
  param: "dec_mask_conv2_w"
  param: "dec_mask_conv2_b"
}
layers {
  bottom: "ep_conv_5x5_1_782"
  top: "ep_conv_5x5_1_782"
  name: "relu_912"
  type: RELU
}
layers {
  bottom: "ep_conv_5x5_1_782"
  top: "ep_upsample_783"
  name: "upsample_943"
  type: UPSAMPLING
  upsampling_param {
    kernel_size: 2
  }
}
layers {
  bottom: "ep_upsample_783"
  top: "ep_t30_conv_5x5_1_845"
  name: "t30_conv_5x5_1_974"
  type: CONVOLUTION
  blobs_lr: 1
  blobs_lr: 2
  weight_decay: 1
  weight_decay: 0
  convolution_param {
    num_output: 1
    pad: 2
    kernel_size: 5
    stride: 1
    weight_filler {
      type: "xavier"
    }
    bias_filler {
      type: "constant"
      value: 0.1
    }
  }
  param: "dec_mask_conv3_w"
  param: "dec_mask_conv3_b"
}
layers {
  bottom: "ep_t0_conv_5x5_1_784"
  bottom: "ep_t1_conv_5x5_1_785"
  bottom: "ep_t2_conv_5x5_1_786"
  bottom: "ep_t3_conv_5x5_1_787"
  bottom: "ep_t4_conv_5x5_1_788"
  bottom: "ep_t5_conv_5x5_1_789"
  bottom: "ep_t6_conv_5x5_1_790"
  bottom: "ep_t7_conv_5x5_1_791"
  bottom: "ep_t8_conv_5x5_1_792"
  bottom: "ep_t9_conv_5x5_1_793"
  bottom: "ep_t10_conv_5x5_1_794"
  bottom: "ep_t11_conv_5x5_1_795"
  bottom: "ep_t12_conv_5x5_1_796"
  bottom: "ep_t13_conv_5x5_1_797"
  bottom: "ep_t14_conv_5x5_1_798"
  bottom: "ep_t15_conv_5x5_1_799"
  bottom: "ep_t16_conv_5x5_1_800"
  bottom: "ep_t17_conv_5x5_1_801"
  bottom: "ep_t18_conv_5x5_1_802"
  bottom: "ep_t19_conv_5x5_1_803"
  bottom: "ep_t20_conv_5x5_1_804"
  bottom: "ep_t21_conv_5x5_1_805"
  bottom: "ep_t22_conv_5x5_1_806"
  bottom: "ep_t23_conv_5x5_1_807"
  bottom: "ep_t24_conv_5x5_1_808"
  bottom: "ep_t25_conv_5x5_1_809"
  bottom: "ep_t26_conv_5x5_1_810"
  bottom: "ep_t27_conv_5x5_1_811"
  bottom: "ep_t28_conv_5x5_1_812"
  bottom: "ep_t29_conv_5x5_1_813"
  bottom: "ep_t30_conv_5x5_1_814"
  top: "images_concat"
  name: "concat_975"
  type: CONCAT
  concat_param {
    concat_dim: 1
  }
  loss_weight: 10.0
}
layers {
  bottom: "ep_t0_conv_5x5_1_815"
  bottom: "ep_t1_conv_5x5_1_816"
  bottom: "ep_t2_conv_5x5_1_817"
  bottom: "ep_t3_conv_5x5_1_818"
  bottom: "ep_t4_conv_5x5_1_819"
  bottom: "ep_t5_conv_5x5_1_820"
  bottom: "ep_t6_conv_5x5_1_821"
  bottom: "ep_t7_conv_5x5_1_822"
  bottom: "ep_t8_conv_5x5_1_823"
  bottom: "ep_t9_conv_5x5_1_824"
  bottom: "ep_t10_conv_5x5_1_825"
  bottom: "ep_t11_conv_5x5_1_826"
  bottom: "ep_t12_conv_5x5_1_827"
  bottom: "ep_t13_conv_5x5_1_828"
  bottom: "ep_t14_conv_5x5_1_829"
  bottom: "ep_t15_conv_5x5_1_830"
  bottom: "ep_t16_conv_5x5_1_831"
  bottom: "ep_t17_conv_5x5_1_832"
  bottom: "ep_t18_conv_5x5_1_833"
  bottom: "ep_t19_conv_5x5_1_834"
  bottom: "ep_t20_conv_5x5_1_835"
  bottom: "ep_t21_conv_5x5_1_836"
  bottom: "ep_t22_conv_5x5_1_837"
  bottom: "ep_t23_conv_5x5_1_838"
  bottom: "ep_t24_conv_5x5_1_839"
  bottom: "ep_t25_conv_5x5_1_840"
  bottom: "ep_t26_conv_5x5_1_841"
  bottom: "ep_t27_conv_5x5_1_842"
  bottom: "ep_t28_conv_5x5_1_843"
  bottom: "ep_t29_conv_5x5_1_844"
  bottom: "ep_t30_conv_5x5_1_845"
  top: "masks_concat"
  name: "concat_976"
  type: CONCAT
  concat_param {
    concat_dim: 1
  }
  loss_weight: 1.0
}
input: "images"
input: "rotations0"
input: "rotations1"
input: "rotations2"
input: "rotations3"
input: "rotations4"
input: "rotations5"
input: "rotations6"
input: "rotations7"
input: "rotations8"
input: "rotations9"
input: "rotations10"
input: "rotations11"
input: "rotations12"
input: "rotations13"
input: "rotations14"
input: "rotations15"
input: "rotations16"
input: "rotations17"
input: "rotations18"
input: "rotations19"
input: "rotations20"
input: "rotations21"
input: "rotations22"
input: "rotations23"
input: "rotations24"
input: "rotations25"
input: "rotations26"
input: "rotations27"
input: "rotations28"
input: "rotations29"
input: "rotations30"
input_dim: 1
input_dim: 3
input_dim: 64
input_dim: 64
input_dim: 1
input_dim: 3
input_dim: 1
input_dim: 1
input_dim: 1
input_dim: 3
input_dim: 1
input_dim: 1
input_dim: 1
input_dim: 3
input_dim: 1
input_dim: 1
input_dim: 1
input_dim: 3
input_dim: 1
input_dim: 1
input_dim: 1
input_dim: 3
input_dim: 1
input_dim: 1
input_dim: 1
input_dim: 3
input_dim: 1
input_dim: 1
input_dim: 1
input_dim: 3
input_dim: 1
input_dim: 1
input_dim: 1
input_dim: 3
input_dim: 1
input_dim: 1
input_dim: 1
input_dim: 3
input_dim: 1
input_dim: 1
input_dim: 1
input_dim: 3
input_dim: 1
input_dim: 1
input_dim: 1
input_dim: 3
input_dim: 1
input_dim: 1
input_dim: 1
input_dim: 3
input_dim: 1
input_dim: 1
input_dim: 1
input_dim: 3
input_dim: 1
input_dim: 1
input_dim: 1
input_dim: 3
input_dim: 1
input_dim: 1
input_dim: 1
input_dim: 3
input_dim: 1
input_dim: 1
input_dim: 1
input_dim: 3
input_dim: 1
input_dim: 1
input_dim: 1
input_dim: 3
input_dim: 1
input_dim: 1
input_dim: 1
input_dim: 3
input_dim: 1
input_dim: 1
input_dim: 1
input_dim: 3
input_dim: 1
input_dim: 1
input_dim: 1
input_dim: 3
input_dim: 1
input_dim: 1
input_dim: 1
input_dim: 3
input_dim: 1
input_dim: 1
input_dim: 1
input_dim: 3
input_dim: 1
input_dim: 1
input_dim: 1
input_dim: 3
input_dim: 1
input_dim: 1
input_dim: 1
input_dim: 3
input_dim: 1
input_dim: 1
input_dim: 1
input_dim: 3
input_dim: 1
input_dim: 1
input_dim: 1
input_dim: 3
input_dim: 1
input_dim: 1
input_dim: 1
input_dim: 3
input_dim: 1
input_dim: 1
input_dim: 1
input_dim: 3
input_dim: 1
input_dim: 1
input_dim: 1
input_dim: 3
input_dim: 1
input_dim: 1
input_dim: 1
input_dim: 3
input_dim: 1
input_dim: 1
input_dim: 1
input_dim: 3
input_dim: 1
input_dim: 1
force_backward: true
